{"format": "layers-model", "generatedBy": "keras v2.1.5", "convertedBy": "TensorFlow.js Converter v3.18.0", "modelTopology": {"keras_version": "2.1.5", "backend": "tensorflow", "model_config": {"config": {"output_layers": [["reshape_2", 0, 0]], "layers": [{"config": {"sparse": false, "dtype": "float32", "batch_input_shape": [null, 48, 48, 1], "name": "input_1"}, "name": "input_1", "class_name": "InputLayer", "inbound_nodes": []}, {"config": {"trainable": true, "filters": 16, "bias_initializer": {"config": {}, "class_name": "Zeros"}, "kernel_constraint": null, "bias_constraint": null, "strides": [1, 1], "dilation_rate": [1, 1], "activity_regularizer": null, "kernel_size": [1, 1], "padding": "same", "bias_regularizer": null, "kernel_regularizer": null, "data_format": "channels_last", "use_bias": true, "kernel_initializer": {"config": {"distribution": "uniform", "mode": "fan_avg", "scale": 1.0, "seed": null}, "class_name": "VarianceScaling"}, "activation": "linear", "name": "conv2d_1"}, "name": "conv2d_1", "class_name": "Conv2D", "inbound_nodes": [[["input_1", 0, 0, {}]]]}, {"config": {"trainable": true, "filters": 16, "bias_initializer": {"config": {}, "class_name": "Zeros"}, "kernel_constraint": null, "bias_constraint": null, "strides": [1, 1], "dilation_rate": [1, 1], "activity_regularizer": null, "kernel_size": [1, 1], "padding": "same", "bias_regularizer": null, "kernel_regularizer": null, "data_format": "channels_last", "use_bias": true, "kernel_initializer": {"config": {"distribution": "uniform", "mode": "fan_avg", "scale": 1.0, "seed": null}, "class_name": "VarianceScaling"}, "activation": "linear", "name": "conv2d_3"}, "name": "conv2d_3", "class_name": "Conv2D", "inbound_nodes": [[["input_1", 0, 0, {}]]]}, {"config": {"trainable": true, "filters": 16, "bias_initializer": {"config": {}, "class_name": "Zeros"}, "kernel_constraint": null, "bias_constraint": null, "strides": [1, 1], "dilation_rate": [1, 1], "activity_regularizer": null, "kernel_size": [1, 1], "padding": "same", "bias_regularizer": null, "kernel_regularizer": null, "data_format": "channels_last", "use_bias": true, "kernel_initializer": {"config": {"distribution": "uniform", "mode": "fan_avg", "scale": 1.0, "seed": null}, "class_name": "VarianceScaling"}, "activation": "linear", "name": "conv2d_5"}, "name": "conv2d_5", "class_name": "Conv2D", "inbound_nodes": [[["input_1", 0, 0, {}]]]}, {"config": {"beta_regularizer": null, "trainable": true, "scale": true, "moving_variance_initializer": {"config": {}, "class_name": "Ones"}, "gamma_initializer": {"config": {}, "class_name": "Ones"}, "epsilon": 0.001, "axis": -1, "moving_mean_initializer": {"config": {}, "class_name": "Zeros"}, "momentum": 0.99, "beta_initializer": {"config": {}, "class_name": "Zeros"}, "beta_constraint": null, "center": true, "gamma_regularizer": null, "name": "batch_normalization_1", "gamma_constraint": null}, "name": "batch_normalization_1", "class_name": "BatchNormalization", "inbound_nodes": [[["conv2d_1", 0, 0, {}]]]}, {"config": {"beta_regularizer": null, "trainable": true, "scale": true, "moving_variance_initializer": {"config": {}, "class_name": "Ones"}, "gamma_initializer": {"config": {}, "class_name": "Ones"}, "epsilon": 0.001, "axis": -1, "moving_mean_initializer": {"config": {}, "class_name": "Zeros"}, "momentum": 0.99, "beta_initializer": {"config": {}, "class_name": "Zeros"}, "beta_constraint": null, "center": true, "gamma_regularizer": null, "name": "batch_normalization_4", "gamma_constraint": null}, "name": "batch_normalization_4", "class_name": "BatchNormalization", "inbound_nodes": [[["conv2d_3", 0, 0, {}]]]}, {"config": {"beta_regularizer": null, "trainable": true, "scale": true, "moving_variance_initializer": {"config": {}, "class_name": "Ones"}, "gamma_initializer": {"config": {}, "class_name": "Ones"}, "epsilon": 0.001, "axis": -1, "moving_mean_initializer": {"config": {}, "class_name": "Zeros"}, "momentum": 0.99, "beta_initializer": {"config": {}, "class_name": "Zeros"}, "beta_constraint": null, "center": true, "gamma_regularizer": null, "name": "batch_normalization_7", "gamma_constraint": null}, "name": "batch_normalization_7", "class_name": "BatchNormalization", "inbound_nodes": [[["conv2d_5", 0, 0, {}]]]}, {"config": {"trainable": true, "activation": "relu6", "name": "activation_1"}, "name": "activation_1", "class_name": "Activation", "inbound_nodes": [[["batch_normalization_1", 0, 0, {}]]]}, {"config": {"trainable": true, "activation": "relu6", "name": "activation_3"}, "name": "activation_3", "class_name": "Activation", "inbound_nodes": [[["batch_normalization_4", 0, 0, {}]]]}, {"config": {"trainable": true, "activation": "relu6", "name": "activation_5"}, "name": "activation_5", "class_name": "Activation", "inbound_nodes": [[["batch_normalization_7", 0, 0, {}]]]}, {"config": {"trainable": true, "depthwise_regularizer": null, "depthwise_constraint": null, "bias_constraint": null, "depth_multiplier": 1, "strides": [2, 2], "dilation_rate": [1, 1], "activity_regularizer": null, "kernel_size": [5, 5], "padding": "same", "bias_regularizer": null, "data_format": "channels_last", "bias_initializer": {"config": {}, "class_name": "Zeros"}, "use_bias": true, "depthwise_initializer": {"config": {"distribution": "uniform", "mode": "fan_avg", "scale": 1.0, "seed": null}, "class_name": "VarianceScaling"}, "activation": "linear", "name": "depthwise_conv2d_1"}, "name": "depthwise_conv2d_1", "class_name": "DepthwiseConv2D", "inbound_nodes": [[["activation_1", 0, 0, {}]]]}, {"config": {"trainable": true, "depthwise_regularizer": null, "depthwise_constraint": null, "bias_constraint": null, "depth_multiplier": 1, "strides": [2, 2], "dilation_rate": [1, 1], "activity_regularizer": null, "kernel_size": [13, 13], "padding": "same", "bias_regularizer": null, "data_format": "channels_last", "bias_initializer": {"config": {}, "class_name": "Zeros"}, "use_bias": true, "depthwise_initializer": {"config": {"distribution": "uniform", "mode": "fan_avg", "scale": 1.0, "seed": null}, "class_name": "VarianceScaling"}, "activation": "linear", "name": "depthwise_conv2d_2"}, "name": "depthwise_conv2d_2", "class_name": "DepthwiseConv2D", "inbound_nodes": [[["activation_3", 0, 0, {}]]]}, {"config": {"trainable": true, "depthwise_regularizer": null, "depthwise_constraint": null, "bias_constraint": null, "depth_multiplier": 1, "strides": [2, 2], "dilation_rate": [1, 1], "activity_regularizer": null, "kernel_size": [21, 21], "padding": "same", "bias_regularizer": null, "data_format": "channels_last", "bias_initializer": {"config": {}, "class_name": "Zeros"}, "use_bias": true, "depthwise_initializer": {"config": {"distribution": "uniform", "mode": "fan_avg", "scale": 1.0, "seed": null}, "class_name": "VarianceScaling"}, "activation": "linear", "name": "depthwise_conv2d_3"}, "name": "depthwise_conv2d_3", "class_name": "DepthwiseConv2D", "inbound_nodes": [[["activation_5", 0, 0, {}]]]}, {"config": {"beta_regularizer": null, "trainable": true, "scale": true, "moving_variance_initializer": {"config": {}, "class_name": "Ones"}, "gamma_initializer": {"config": {}, "class_name": "Ones"}, "epsilon": 0.001, "axis": -1, "moving_mean_initializer": {"config": {}, "class_name": "Zeros"}, "momentum": 0.99, "beta_initializer": {"config": {}, "class_name": "Zeros"}, "beta_constraint": null, "center": true, "gamma_regularizer": null, "name": "batch_normalization_2", "gamma_constraint": null}, "name": "batch_normalization_2", "class_name": "BatchNormalization", "inbound_nodes": [[["depthwise_conv2d_1", 0, 0, {}]]]}, {"config": {"beta_regularizer": null, "trainable": true, "scale": true, "moving_variance_initializer": {"config": {}, "class_name": "Ones"}, "gamma_initializer": {"config": {}, "class_name": "Ones"}, "epsilon": 0.001, "axis": -1, "moving_mean_initializer": {"config": {}, "class_name": "Zeros"}, "momentum": 0.99, "beta_initializer": {"config": {}, "class_name": "Zeros"}, "beta_constraint": null, "center": true, "gamma_regularizer": null, "name": "batch_normalization_5", "gamma_constraint": null}, "name": "batch_normalization_5", "class_name": "BatchNormalization", "inbound_nodes": [[["depthwise_conv2d_2", 0, 0, {}]]]}, {"config": {"beta_regularizer": null, "trainable": true, "scale": true, "moving_variance_initializer": {"config": {}, "class_name": "Ones"}, "gamma_initializer": {"config": {}, "class_name": "Ones"}, "epsilon": 0.001, "axis": -1, "moving_mean_initializer": {"config": {}, "class_name": "Zeros"}, "momentum": 0.99, "beta_initializer": {"config": {}, "class_name": "Zeros"}, "beta_constraint": null, "center": true, "gamma_regularizer": null, "name": "batch_normalization_8", "gamma_constraint": null}, "name": "batch_normalization_8", "class_name": "BatchNormalization", "inbound_nodes": [[["depthwise_conv2d_3", 0, 0, {}]]]}, {"config": {"trainable": true, "activation": "relu6", "name": "activation_2"}, "name": "activation_2", "class_name": "Activation", "inbound_nodes": [[["batch_normalization_2", 0, 0, {}]]]}, {"config": {"trainable": true, "activation": "relu6", "name": "activation_4"}, "name": "activation_4", "class_name": "Activation", "inbound_nodes": [[["batch_normalization_5", 0, 0, {}]]]}, {"config": {"trainable": true, "activation": "relu6", "name": "activation_6"}, "name": "activation_6", "class_name": "Activation", "inbound_nodes": [[["batch_normalization_8", 0, 0, {}]]]}, {"config": {"trainable": true, "filters": 16, "bias_initializer": {"config": {}, "class_name": "Zeros"}, "kernel_constraint": null, "bias_constraint": null, "strides": [1, 1], "dilation_rate": [1, 1], "activity_regularizer": null, "kernel_size": [1, 1], "padding": "same", "bias_regularizer": null, "kernel_regularizer": null, "data_format": "channels_last", "use_bias": true, "kernel_initializer": {"config": {"distribution": "uniform", "mode": "fan_avg", "scale": 1.0, "seed": null}, "class_name": "VarianceScaling"}, "activation": "linear", "name": "conv2d_2"}, "name": "conv2d_2", "class_name": "Conv2D", "inbound_nodes": [[["activation_2", 0, 0, {}]]]}, {"config": {"trainable": true, "filters": 16, "bias_initializer": {"config": {}, "class_name": "Zeros"}, "kernel_constraint": null, "bias_constraint": null, "strides": [1, 1], "dilation_rate": [1, 1], "activity_regularizer": null, "kernel_size": [1, 1], "padding": "same", "bias_regularizer": null, "kernel_regularizer": null, "data_format": "channels_last", "use_bias": true, "kernel_initializer": {"config": {"distribution": "uniform", "mode": "fan_avg", "scale": 1.0, "seed": null}, "class_name": "VarianceScaling"}, "activation": "linear", "name": "conv2d_4"}, "name": "conv2d_4", "class_name": "Conv2D", "inbound_nodes": [[["activation_4", 0, 0, {}]]]}, {"config": {"trainable": true, "filters": 16, "bias_initializer": {"config": {}, "class_name": "Zeros"}, "kernel_constraint": null, "bias_constraint": null, "strides": [1, 1], "dilation_rate": [1, 1], "activity_regularizer": null, "kernel_size": [1, 1], "padding": "same", "bias_regularizer": null, "kernel_regularizer": null, "data_format": "channels_last", "use_bias": true, "kernel_initializer": {"config": {"distribution": "uniform", "mode": "fan_avg", "scale": 1.0, "seed": null}, "class_name": "VarianceScaling"}, "activation": "linear", "name": "conv2d_6"}, "name": "conv2d_6", "class_name": "Conv2D", "inbound_nodes": [[["activation_6", 0, 0, {}]]]}, {"config": {"beta_regularizer": null, "trainable": true, "scale": true, "moving_variance_initializer": {"config": {}, "class_name": "Ones"}, "gamma_initializer": {"config": {}, "class_name": "Ones"}, "epsilon": 0.001, "axis": -1, "moving_mean_initializer": {"config": {}, "class_name": "Zeros"}, "momentum": 0.99, "beta_initializer": {"config": {}, "class_name": "Zeros"}, "beta_constraint": null, "center": true, "gamma_regularizer": null, "name": "batch_normalization_3", "gamma_constraint": null}, "name": "batch_normalization_3", "class_name": "BatchNormalization", "inbound_nodes": [[["conv2d_2", 0, 0, {}]]]}, {"config": {"beta_regularizer": null, "trainable": true, "scale": true, "moving_variance_initializer": {"config": {}, "class_name": "Ones"}, "gamma_initializer": {"config": {}, "class_name": "Ones"}, "epsilon": 0.001, "axis": -1, "moving_mean_initializer": {"config": {}, "class_name": "Zeros"}, "momentum": 0.99, "beta_initializer": {"config": {}, "class_name": "Zeros"}, "beta_constraint": null, "center": true, "gamma_regularizer": null, "name": "batch_normalization_6", "gamma_constraint": null}, "name": "batch_normalization_6", "class_name": "BatchNormalization", "inbound_nodes": [[["conv2d_4", 0, 0, {}]]]}, {"config": {"beta_regularizer": null, "trainable": true, "scale": true, "moving_variance_initializer": {"config": {}, "class_name": "Ones"}, "gamma_initializer": {"config": {}, "class_name": "Ones"}, "epsilon": 0.001, "axis": -1, "moving_mean_initializer": {"config": {}, "class_name": "Zeros"}, "momentum": 0.99, "beta_initializer": {"config": {}, "class_name": "Zeros"}, "beta_constraint": null, "center": true, "gamma_regularizer": null, "name": "batch_normalization_9", "gamma_constraint": null}, "name": "batch_normalization_9", "class_name": "BatchNormalization", "inbound_nodes": [[["conv2d_6", 0, 0, {}]]]}, {"config": {"trainable": true, "name": "concatenate_1", "axis": -1}, "name": "concatenate_1", "class_name": "Concatenate", "inbound_nodes": [[["batch_normalization_3", 0, 0, {}], ["batch_normalization_6", 0, 0, {}], ["batch_normalization_9", 0, 0, {}]]]}, {"config": {"trainable": true, "filters": 48, "bias_initializer": {"config": {}, "class_name": "Zeros"}, "kernel_constraint": null, "bias_constraint": null, "strides": [1, 1], "dilation_rate": [1, 1], "activity_regularizer": null, "kernel_size": [1, 1], "padding": "same", "bias_regularizer": null, "kernel_regularizer": null, "data_format": "channels_last", "use_bias": true, "kernel_initializer": {"config": {"distribution": "uniform", "mode": "fan_avg", "scale": 1.0, "seed": null}, "class_name": "VarianceScaling"}, "activation": "linear", "name": "conv2d_7"}, "name": "conv2d_7", "class_name": "Conv2D", "inbound_nodes": [[["concatenate_1", 0, 0, {}]]]}, {"config": {"beta_regularizer": null, "trainable": true, "scale": true, "moving_variance_initializer": {"config": {}, "class_name": "Ones"}, "gamma_initializer": {"config": {}, "class_name": "Ones"}, "epsilon": 0.001, "axis": -1, "moving_mean_initializer": {"config": {}, "class_name": "Zeros"}, "momentum": 0.99, "beta_initializer": {"config": {}, "class_name": "Zeros"}, "beta_constraint": null, "center": true, "gamma_regularizer": null, "name": "batch_normalization_10", "gamma_constraint": null}, "name": "batch_normalization_10", "class_name": "BatchNormalization", "inbound_nodes": [[["conv2d_7", 0, 0, {}]]]}, {"config": {"trainable": true, "activation": "relu6", "name": "activation_7"}, "name": "activation_7", "class_name": "Activation", "inbound_nodes": [[["batch_normalization_10", 0, 0, {}]]]}, {"config": {"trainable": true, "depthwise_regularizer": null, "depthwise_constraint": null, "bias_constraint": null, "depth_multiplier": 1, "strides": [1, 1], "dilation_rate": [1, 1], "activity_regularizer": null, "kernel_size": [3, 3], "padding": "same", "bias_regularizer": null, "data_format": "channels_last", "bias_initializer": {"config": {}, "class_name": "Zeros"}, "use_bias": true, "depthwise_initializer": {"config": {"distribution": "uniform", "mode": "fan_avg", "scale": 1.0, "seed": null}, "class_name": "VarianceScaling"}, "activation": "linear", "name": "depthwise_conv2d_4"}, "name": "depthwise_conv2d_4", "class_name": "DepthwiseConv2D", "inbound_nodes": [[["activation_7", 0, 0, {}]]]}, {"config": {"beta_regularizer": null, "trainable": true, "scale": true, "moving_variance_initializer": {"config": {}, "class_name": "Ones"}, "gamma_initializer": {"config": {}, "class_name": "Ones"}, "epsilon": 0.001, "axis": -1, "moving_mean_initializer": {"config": {}, "class_name": "Zeros"}, "momentum": 0.99, "beta_initializer": {"config": {}, "class_name": "Zeros"}, "beta_constraint": null, "center": true, "gamma_regularizer": null, "name": "batch_normalization_11", "gamma_constraint": null}, "name": "batch_normalization_11", "class_name": "BatchNormalization", "inbound_nodes": [[["depthwise_conv2d_4", 0, 0, {}]]]}, {"config": {"trainable": true, "activation": "relu6", "name": "activation_8"}, "name": "activation_8", "class_name": "Activation", "inbound_nodes": [[["batch_normalization_11", 0, 0, {}]]]}, {"config": {"trainable": true, "filters": 32, "bias_initializer": {"config": {}, "class_name": "Zeros"}, "kernel_constraint": null, "bias_constraint": null, "strides": [1, 1], "dilation_rate": [1, 1], "activity_regularizer": null, "kernel_size": [1, 1], "padding": "same", "bias_regularizer": null, "kernel_regularizer": null, "data_format": "channels_last", "use_bias": true, "kernel_initializer": {"config": {"distribution": "uniform", "mode": "fan_avg", "scale": 1.0, "seed": null}, "class_name": "VarianceScaling"}, "activation": "linear", "name": "conv2d_8"}, "name": "conv2d_8", "class_name": "Conv2D", "inbound_nodes": [[["activation_8", 0, 0, {}]]]}, {"config": {"beta_regularizer": null, "trainable": true, "scale": true, "moving_variance_initializer": {"config": {}, "class_name": "Ones"}, "gamma_initializer": {"config": {}, "class_name": "Ones"}, "epsilon": 0.001, "axis": -1, "moving_mean_initializer": {"config": {}, "class_name": "Zeros"}, "momentum": 0.99, "beta_initializer": {"config": {}, "class_name": "Zeros"}, "beta_constraint": null, "center": true, "gamma_regularizer": null, "name": "batch_normalization_12", "gamma_constraint": null}, "name": "batch_normalization_12", "class_name": "BatchNormalization", "inbound_nodes": [[["conv2d_8", 0, 0, {}]]]}, {"config": {"trainable": true, "filters": 192, "bias_initializer": {"config": {}, "class_name": "Zeros"}, "kernel_constraint": null, "bias_constraint": null, "strides": [1, 1], "dilation_rate": [1, 1], "activity_regularizer": null, "kernel_size": [1, 1], "padding": "same", "bias_regularizer": null, "kernel_regularizer": null, "data_format": "channels_last", "use_bias": true, "kernel_initializer": {"config": {"distribution": "uniform", "mode": "fan_avg", "scale": 1.0, "seed": null}, "class_name": "VarianceScaling"}, "activation": "linear", "name": "conv2d_9"}, "name": "conv2d_9", "class_name": "Conv2D", "inbound_nodes": [[["batch_normalization_12", 0, 0, {}]]]}, {"config": {"beta_regularizer": null, "trainable": true, "scale": true, "moving_variance_initializer": {"config": {}, "class_name": "Ones"}, "gamma_initializer": {"config": {}, "class_name": "Ones"}, "epsilon": 0.001, "axis": -1, "moving_mean_initializer": {"config": {}, "class_name": "Zeros"}, "momentum": 0.99, "beta_initializer": {"config": {}, "class_name": "Zeros"}, "beta_constraint": null, "center": true, "gamma_regularizer": null, "name": "batch_normalization_13", "gamma_constraint": null}, "name": "batch_normalization_13", "class_name": "BatchNormalization", "inbound_nodes": [[["conv2d_9", 0, 0, {}]]]}, {"config": {"trainable": true, "activation": "relu6", "name": "activation_9"}, "name": "activation_9", "class_name": "Activation", "inbound_nodes": [[["batch_normalization_13", 0, 0, {}]]]}, {"config": {"trainable": true, "depthwise_regularizer": null, "depthwise_constraint": null, "bias_constraint": null, "depth_multiplier": 1, "strides": [2, 2], "dilation_rate": [1, 1], "activity_regularizer": null, "kernel_size": [3, 3], "padding": "same", "bias_regularizer": null, "data_format": "channels_last", "bias_initializer": {"config": {}, "class_name": "Zeros"}, "use_bias": true, "depthwise_initializer": {"config": {"distribution": "uniform", "mode": "fan_avg", "scale": 1.0, "seed": null}, "class_name": "VarianceScaling"}, "activation": "linear", "name": "depthwise_conv2d_5"}, "name": "depthwise_conv2d_5", "class_name": "DepthwiseConv2D", "inbound_nodes": [[["activation_9", 0, 0, {}]]]}, {"config": {"beta_regularizer": null, "trainable": true, "scale": true, "moving_variance_initializer": {"config": {}, "class_name": "Ones"}, "gamma_initializer": {"config": {}, "class_name": "Ones"}, "epsilon": 0.001, "axis": -1, "moving_mean_initializer": {"config": {}, "class_name": "Zeros"}, "momentum": 0.99, "beta_initializer": {"config": {}, "class_name": "Zeros"}, "beta_constraint": null, "center": true, "gamma_regularizer": null, "name": "batch_normalization_14", "gamma_constraint": null}, "name": "batch_normalization_14", "class_name": "BatchNormalization", "inbound_nodes": [[["depthwise_conv2d_5", 0, 0, {}]]]}, {"config": {"trainable": true, "activation": "relu6", "name": "activation_10"}, "name": "activation_10", "class_name": "Activation", "inbound_nodes": [[["batch_normalization_14", 0, 0, {}]]]}, {"config": {"trainable": true, "filters": 64, "bias_initializer": {"config": {}, "class_name": "Zeros"}, "kernel_constraint": null, "bias_constraint": null, "strides": [1, 1], "dilation_rate": [1, 1], "activity_regularizer": null, "kernel_size": [1, 1], "padding": "same", "bias_regularizer": null, "kernel_regularizer": null, "data_format": "channels_last", "use_bias": true, "kernel_initializer": {"config": {"distribution": "uniform", "mode": "fan_avg", "scale": 1.0, "seed": null}, "class_name": "VarianceScaling"}, "activation": "linear", "name": "conv2d_10"}, "name": "conv2d_10", "class_name": "Conv2D", "inbound_nodes": [[["activation_10", 0, 0, {}]]]}, {"config": {"beta_regularizer": null, "trainable": true, "scale": true, "moving_variance_initializer": {"config": {}, "class_name": "Ones"}, "gamma_initializer": {"config": {}, "class_name": "Ones"}, "epsilon": 0.001, "axis": -1, "moving_mean_initializer": {"config": {}, "class_name": "Zeros"}, "momentum": 0.99, "beta_initializer": {"config": {}, "class_name": "Zeros"}, "beta_constraint": null, "center": true, "gamma_regularizer": null, "name": "batch_normalization_15", "gamma_constraint": null}, "name": "batch_normalization_15", "class_name": "BatchNormalization", "inbound_nodes": [[["conv2d_10", 0, 0, {}]]]}, {"config": {"trainable": true, "filters": 384, "bias_initializer": {"config": {}, "class_name": "Zeros"}, "kernel_constraint": null, "bias_constraint": null, "strides": [1, 1], "dilation_rate": [1, 1], "activity_regularizer": null, "kernel_size": [1, 1], "padding": "same", "bias_regularizer": null, "kernel_regularizer": null, "data_format": "channels_last", "use_bias": true, "kernel_initializer": {"config": {"distribution": "uniform", "mode": "fan_avg", "scale": 1.0, "seed": null}, "class_name": "VarianceScaling"}, "activation": "linear", "name": "conv2d_11"}, "name": "conv2d_11", "class_name": "Conv2D", "inbound_nodes": [[["batch_normalization_15", 0, 0, {}]]]}, {"config": {"beta_regularizer": null, "trainable": true, "scale": true, "moving_variance_initializer": {"config": {}, "class_name": "Ones"}, "gamma_initializer": {"config": {}, "class_name": "Ones"}, "epsilon": 0.001, "axis": -1, "moving_mean_initializer": {"config": {}, "class_name": "Zeros"}, "momentum": 0.99, "beta_initializer": {"config": {}, "class_name": "Zeros"}, "beta_constraint": null, "center": true, "gamma_regularizer": null, "name": "batch_normalization_16", "gamma_constraint": null}, "name": "batch_normalization_16", "class_name": "BatchNormalization", "inbound_nodes": [[["conv2d_11", 0, 0, {}]]]}, {"config": {"trainable": true, "activation": "relu6", "name": "activation_11"}, "name": "activation_11", "class_name": "Activation", "inbound_nodes": [[["batch_normalization_16", 0, 0, {}]]]}, {"config": {"trainable": true, "depthwise_regularizer": null, "depthwise_constraint": null, "bias_constraint": null, "depth_multiplier": 1, "strides": [1, 1], "dilation_rate": [1, 1], "activity_regularizer": null, "kernel_size": [3, 3], "padding": "same", "bias_regularizer": null, "data_format": "channels_last", "bias_initializer": {"config": {}, "class_name": "Zeros"}, "use_bias": true, "depthwise_initializer": {"config": {"distribution": "uniform", "mode": "fan_avg", "scale": 1.0, "seed": null}, "class_name": "VarianceScaling"}, "activation": "linear", "name": "depthwise_conv2d_6"}, "name": "depthwise_conv2d_6", "class_name": "DepthwiseConv2D", "inbound_nodes": [[["activation_11", 0, 0, {}]]]}, {"config": {"beta_regularizer": null, "trainable": true, "scale": true, "moving_variance_initializer": {"config": {}, "class_name": "Ones"}, "gamma_initializer": {"config": {}, "class_name": "Ones"}, "epsilon": 0.001, "axis": -1, "moving_mean_initializer": {"config": {}, "class_name": "Zeros"}, "momentum": 0.99, "beta_initializer": {"config": {}, "class_name": "Zeros"}, "beta_constraint": null, "center": true, "gamma_regularizer": null, "name": "batch_normalization_17", "gamma_constraint": null}, "name": "batch_normalization_17", "class_name": "BatchNormalization", "inbound_nodes": [[["depthwise_conv2d_6", 0, 0, {}]]]}, {"config": {"trainable": true, "activation": "relu6", "name": "activation_12"}, "name": "activation_12", "class_name": "Activation", "inbound_nodes": [[["batch_normalization_17", 0, 0, {}]]]}, {"config": {"trainable": true, "filters": 64, "bias_initializer": {"config": {}, "class_name": "Zeros"}, "kernel_constraint": null, "bias_constraint": null, "strides": [1, 1], "dilation_rate": [1, 1], "activity_regularizer": null, "kernel_size": [1, 1], "padding": "same", "bias_regularizer": null, "kernel_regularizer": null, "data_format": "channels_last", "use_bias": true, "kernel_initializer": {"config": {"distribution": "uniform", "mode": "fan_avg", "scale": 1.0, "seed": null}, "class_name": "VarianceScaling"}, "activation": "linear", "name": "conv2d_12"}, "name": "conv2d_12", "class_name": "Conv2D", "inbound_nodes": [[["activation_12", 0, 0, {}]]]}, {"config": {"beta_regularizer": null, "trainable": true, "scale": true, "moving_variance_initializer": {"config": {}, "class_name": "Ones"}, "gamma_initializer": {"config": {}, "class_name": "Ones"}, "epsilon": 0.001, "axis": -1, "moving_mean_initializer": {"config": {}, "class_name": "Zeros"}, "momentum": 0.99, "beta_initializer": {"config": {}, "class_name": "Zeros"}, "beta_constraint": null, "center": true, "gamma_regularizer": null, "name": "batch_normalization_18", "gamma_constraint": null}, "name": "batch_normalization_18", "class_name": "BatchNormalization", "inbound_nodes": [[["conv2d_12", 0, 0, {}]]]}, {"config": {"trainable": true, "name": "add_1"}, "name": "add_1", "class_name": "Add", "inbound_nodes": [[["batch_normalization_18", 0, 0, {}], ["batch_normalization_15", 0, 0, {}]]]}, {"config": {"trainable": true, "filters": 384, "bias_initializer": {"config": {}, "class_name": "Zeros"}, "kernel_constraint": null, "bias_constraint": null, "strides": [1, 1], "dilation_rate": [1, 1], "activity_regularizer": null, "kernel_size": [1, 1], "padding": "same", "bias_regularizer": null, "kernel_regularizer": null, "data_format": "channels_last", "use_bias": true, "kernel_initializer": {"config": {"distribution": "uniform", "mode": "fan_avg", "scale": 1.0, "seed": null}, "class_name": "VarianceScaling"}, "activation": "linear", "name": "conv2d_13"}, "name": "conv2d_13", "class_name": "Conv2D", "inbound_nodes": [[["add_1", 0, 0, {}]]]}, {"config": {"beta_regularizer": null, "trainable": true, "scale": true, "moving_variance_initializer": {"config": {}, "class_name": "Ones"}, "gamma_initializer": {"config": {}, "class_name": "Ones"}, "epsilon": 0.001, "axis": -1, "moving_mean_initializer": {"config": {}, "class_name": "Zeros"}, "momentum": 0.99, "beta_initializer": {"config": {}, "class_name": "Zeros"}, "beta_constraint": null, "center": true, "gamma_regularizer": null, "name": "batch_normalization_19", "gamma_constraint": null}, "name": "batch_normalization_19", "class_name": "BatchNormalization", "inbound_nodes": [[["conv2d_13", 0, 0, {}]]]}, {"config": {"trainable": true, "activation": "relu6", "name": "activation_13"}, "name": "activation_13", "class_name": "Activation", "inbound_nodes": [[["batch_normalization_19", 0, 0, {}]]]}, {"config": {"trainable": true, "depthwise_regularizer": null, "depthwise_constraint": null, "bias_constraint": null, "depth_multiplier": 1, "strides": [1, 1], "dilation_rate": [1, 1], "activity_regularizer": null, "kernel_size": [3, 3], "padding": "same", "bias_regularizer": null, "data_format": "channels_last", "bias_initializer": {"config": {}, "class_name": "Zeros"}, "use_bias": true, "depthwise_initializer": {"config": {"distribution": "uniform", "mode": "fan_avg", "scale": 1.0, "seed": null}, "class_name": "VarianceScaling"}, "activation": "linear", "name": "depthwise_conv2d_7"}, "name": "depthwise_conv2d_7", "class_name": "DepthwiseConv2D", "inbound_nodes": [[["activation_13", 0, 0, {}]]]}, {"config": {"beta_regularizer": null, "trainable": true, "scale": true, "moving_variance_initializer": {"config": {}, "class_name": "Ones"}, "gamma_initializer": {"config": {}, "class_name": "Ones"}, "epsilon": 0.001, "axis": -1, "moving_mean_initializer": {"config": {}, "class_name": "Zeros"}, "momentum": 0.99, "beta_initializer": {"config": {}, "class_name": "Zeros"}, "beta_constraint": null, "center": true, "gamma_regularizer": null, "name": "batch_normalization_20", "gamma_constraint": null}, "name": "batch_normalization_20", "class_name": "BatchNormalization", "inbound_nodes": [[["depthwise_conv2d_7", 0, 0, {}]]]}, {"config": {"trainable": true, "activation": "relu6", "name": "activation_14"}, "name": "activation_14", "class_name": "Activation", "inbound_nodes": [[["batch_normalization_20", 0, 0, {}]]]}, {"config": {"trainable": true, "filters": 64, "bias_initializer": {"config": {}, "class_name": "Zeros"}, "kernel_constraint": null, "bias_constraint": null, "strides": [1, 1], "dilation_rate": [1, 1], "activity_regularizer": null, "kernel_size": [1, 1], "padding": "same", "bias_regularizer": null, "kernel_regularizer": null, "data_format": "channels_last", "use_bias": true, "kernel_initializer": {"config": {"distribution": "uniform", "mode": "fan_avg", "scale": 1.0, "seed": null}, "class_name": "VarianceScaling"}, "activation": "linear", "name": "conv2d_14"}, "name": "conv2d_14", "class_name": "Conv2D", "inbound_nodes": [[["activation_14", 0, 0, {}]]]}, {"config": {"beta_regularizer": null, "trainable": true, "scale": true, "moving_variance_initializer": {"config": {}, "class_name": "Ones"}, "gamma_initializer": {"config": {}, "class_name": "Ones"}, "epsilon": 0.001, "axis": -1, "moving_mean_initializer": {"config": {}, "class_name": "Zeros"}, "momentum": 0.99, "beta_initializer": {"config": {}, "class_name": "Zeros"}, "beta_constraint": null, "center": true, "gamma_regularizer": null, "name": "batch_normalization_21", "gamma_constraint": null}, "name": "batch_normalization_21", "class_name": "BatchNormalization", "inbound_nodes": [[["conv2d_14", 0, 0, {}]]]}, {"config": {"trainable": true, "name": "add_2"}, "name": "add_2", "class_name": "Add", "inbound_nodes": [[["batch_normalization_21", 0, 0, {}], ["add_1", 0, 0, {}]]]}, {"config": {"trainable": true, "filters": 384, "bias_initializer": {"config": {}, "class_name": "Zeros"}, "kernel_constraint": null, "bias_constraint": null, "strides": [1, 1], "dilation_rate": [1, 1], "activity_regularizer": null, "kernel_size": [1, 1], "padding": "same", "bias_regularizer": null, "kernel_regularizer": null, "data_format": "channels_last", "use_bias": true, "kernel_initializer": {"config": {"distribution": "uniform", "mode": "fan_avg", "scale": 1.0, "seed": null}, "class_name": "VarianceScaling"}, "activation": "linear", "name": "conv2d_15"}, "name": "conv2d_15", "class_name": "Conv2D", "inbound_nodes": [[["add_2", 0, 0, {}]]]}, {"config": {"beta_regularizer": null, "trainable": true, "scale": true, "moving_variance_initializer": {"config": {}, "class_name": "Ones"}, "gamma_initializer": {"config": {}, "class_name": "Ones"}, "epsilon": 0.001, "axis": -1, "moving_mean_initializer": {"config": {}, "class_name": "Zeros"}, "momentum": 0.99, "beta_initializer": {"config": {}, "class_name": "Zeros"}, "beta_constraint": null, "center": true, "gamma_regularizer": null, "name": "batch_normalization_22", "gamma_constraint": null}, "name": "batch_normalization_22", "class_name": "BatchNormalization", "inbound_nodes": [[["conv2d_15", 0, 0, {}]]]}, {"config": {"trainable": true, "activation": "relu6", "name": "activation_15"}, "name": "activation_15", "class_name": "Activation", "inbound_nodes": [[["batch_normalization_22", 0, 0, {}]]]}, {"config": {"trainable": true, "depthwise_regularizer": null, "depthwise_constraint": null, "bias_constraint": null, "depth_multiplier": 1, "strides": [2, 2], "dilation_rate": [1, 1], "activity_regularizer": null, "kernel_size": [3, 3], "padding": "same", "bias_regularizer": null, "data_format": "channels_last", "bias_initializer": {"config": {}, "class_name": "Zeros"}, "use_bias": true, "depthwise_initializer": {"config": {"distribution": "uniform", "mode": "fan_avg", "scale": 1.0, "seed": null}, "class_name": "VarianceScaling"}, "activation": "linear", "name": "depthwise_conv2d_8"}, "name": "depthwise_conv2d_8", "class_name": "DepthwiseConv2D", "inbound_nodes": [[["activation_15", 0, 0, {}]]]}, {"config": {"beta_regularizer": null, "trainable": true, "scale": true, "moving_variance_initializer": {"config": {}, "class_name": "Ones"}, "gamma_initializer": {"config": {}, "class_name": "Ones"}, "epsilon": 0.001, "axis": -1, "moving_mean_initializer": {"config": {}, "class_name": "Zeros"}, "momentum": 0.99, "beta_initializer": {"config": {}, "class_name": "Zeros"}, "beta_constraint": null, "center": true, "gamma_regularizer": null, "name": "batch_normalization_23", "gamma_constraint": null}, "name": "batch_normalization_23", "class_name": "BatchNormalization", "inbound_nodes": [[["depthwise_conv2d_8", 0, 0, {}]]]}, {"config": {"trainable": true, "activation": "relu6", "name": "activation_16"}, "name": "activation_16", "class_name": "Activation", "inbound_nodes": [[["batch_normalization_23", 0, 0, {}]]]}, {"config": {"trainable": true, "filters": 96, "bias_initializer": {"config": {}, "class_name": "Zeros"}, "kernel_constraint": null, "bias_constraint": null, "strides": [1, 1], "dilation_rate": [1, 1], "activity_regularizer": null, "kernel_size": [1, 1], "padding": "same", "bias_regularizer": null, "kernel_regularizer": null, "data_format": "channels_last", "use_bias": true, "kernel_initializer": {"config": {"distribution": "uniform", "mode": "fan_avg", "scale": 1.0, "seed": null}, "class_name": "VarianceScaling"}, "activation": "linear", "name": "conv2d_16"}, "name": "conv2d_16", "class_name": "Conv2D", "inbound_nodes": [[["activation_16", 0, 0, {}]]]}, {"config": {"beta_regularizer": null, "trainable": true, "scale": true, "moving_variance_initializer": {"config": {}, "class_name": "Ones"}, "gamma_initializer": {"config": {}, "class_name": "Ones"}, "epsilon": 0.001, "axis": -1, "moving_mean_initializer": {"config": {}, "class_name": "Zeros"}, "momentum": 0.99, "beta_initializer": {"config": {}, "class_name": "Zeros"}, "beta_constraint": null, "center": true, "gamma_regularizer": null, "name": "batch_normalization_24", "gamma_constraint": null}, "name": "batch_normalization_24", "class_name": "BatchNormalization", "inbound_nodes": [[["conv2d_16", 0, 0, {}]]]}, {"config": {"trainable": true, "filters": 576, "bias_initializer": {"config": {}, "class_name": "Zeros"}, "kernel_constraint": null, "bias_constraint": null, "strides": [1, 1], "dilation_rate": [1, 1], "activity_regularizer": null, "kernel_size": [1, 1], "padding": "same", "bias_regularizer": null, "kernel_regularizer": null, "data_format": "channels_last", "use_bias": true, "kernel_initializer": {"config": {"distribution": "uniform", "mode": "fan_avg", "scale": 1.0, "seed": null}, "class_name": "VarianceScaling"}, "activation": "linear", "name": "conv2d_17"}, "name": "conv2d_17", "class_name": "Conv2D", "inbound_nodes": [[["batch_normalization_24", 0, 0, {}]]]}, {"config": {"beta_regularizer": null, "trainable": true, "scale": true, "moving_variance_initializer": {"config": {}, "class_name": "Ones"}, "gamma_initializer": {"config": {}, "class_name": "Ones"}, "epsilon": 0.001, "axis": -1, "moving_mean_initializer": {"config": {}, "class_name": "Zeros"}, "momentum": 0.99, "beta_initializer": {"config": {}, "class_name": "Zeros"}, "beta_constraint": null, "center": true, "gamma_regularizer": null, "name": "batch_normalization_25", "gamma_constraint": null}, "name": "batch_normalization_25", "class_name": "BatchNormalization", "inbound_nodes": [[["conv2d_17", 0, 0, {}]]]}, {"config": {"trainable": true, "activation": "relu6", "name": "activation_17"}, "name": "activation_17", "class_name": "Activation", "inbound_nodes": [[["batch_normalization_25", 0, 0, {}]]]}, {"config": {"trainable": true, "depthwise_regularizer": null, "depthwise_constraint": null, "bias_constraint": null, "depth_multiplier": 1, "strides": [1, 1], "dilation_rate": [1, 1], "activity_regularizer": null, "kernel_size": [3, 3], "padding": "same", "bias_regularizer": null, "data_format": "channels_last", "bias_initializer": {"config": {}, "class_name": "Zeros"}, "use_bias": true, "depthwise_initializer": {"config": {"distribution": "uniform", "mode": "fan_avg", "scale": 1.0, "seed": null}, "class_name": "VarianceScaling"}, "activation": "linear", "name": "depthwise_conv2d_9"}, "name": "depthwise_conv2d_9", "class_name": "DepthwiseConv2D", "inbound_nodes": [[["activation_17", 0, 0, {}]]]}, {"config": {"beta_regularizer": null, "trainable": true, "scale": true, "moving_variance_initializer": {"config": {}, "class_name": "Ones"}, "gamma_initializer": {"config": {}, "class_name": "Ones"}, "epsilon": 0.001, "axis": -1, "moving_mean_initializer": {"config": {}, "class_name": "Zeros"}, "momentum": 0.99, "beta_initializer": {"config": {}, "class_name": "Zeros"}, "beta_constraint": null, "center": true, "gamma_regularizer": null, "name": "batch_normalization_26", "gamma_constraint": null}, "name": "batch_normalization_26", "class_name": "BatchNormalization", "inbound_nodes": [[["depthwise_conv2d_9", 0, 0, {}]]]}, {"config": {"trainable": true, "activation": "relu6", "name": "activation_18"}, "name": "activation_18", "class_name": "Activation", "inbound_nodes": [[["batch_normalization_26", 0, 0, {}]]]}, {"config": {"trainable": true, "filters": 96, "bias_initializer": {"config": {}, "class_name": "Zeros"}, "kernel_constraint": null, "bias_constraint": null, "strides": [1, 1], "dilation_rate": [1, 1], "activity_regularizer": null, "kernel_size": [1, 1], "padding": "same", "bias_regularizer": null, "kernel_regularizer": null, "data_format": "channels_last", "use_bias": true, "kernel_initializer": {"config": {"distribution": "uniform", "mode": "fan_avg", "scale": 1.0, "seed": null}, "class_name": "VarianceScaling"}, "activation": "linear", "name": "conv2d_18"}, "name": "conv2d_18", "class_name": "Conv2D", "inbound_nodes": [[["activation_18", 0, 0, {}]]]}, {"config": {"beta_regularizer": null, "trainable": true, "scale": true, "moving_variance_initializer": {"config": {}, "class_name": "Ones"}, "gamma_initializer": {"config": {}, "class_name": "Ones"}, "epsilon": 0.001, "axis": -1, "moving_mean_initializer": {"config": {}, "class_name": "Zeros"}, "momentum": 0.99, "beta_initializer": {"config": {}, "class_name": "Zeros"}, "beta_constraint": null, "center": true, "gamma_regularizer": null, "name": "batch_normalization_27", "gamma_constraint": null}, "name": "batch_normalization_27", "class_name": "BatchNormalization", "inbound_nodes": [[["conv2d_18", 0, 0, {}]]]}, {"config": {"trainable": true, "name": "add_3"}, "name": "add_3", "class_name": "Add", "inbound_nodes": [[["batch_normalization_27", 0, 0, {}], ["batch_normalization_24", 0, 0, {}]]]}, {"config": {"trainable": true, "filters": 576, "bias_initializer": {"config": {}, "class_name": "Zeros"}, "kernel_constraint": null, "bias_constraint": null, "strides": [1, 1], "dilation_rate": [1, 1], "activity_regularizer": null, "kernel_size": [1, 1], "padding": "same", "bias_regularizer": null, "kernel_regularizer": null, "data_format": "channels_last", "use_bias": true, "kernel_initializer": {"config": {"distribution": "uniform", "mode": "fan_avg", "scale": 1.0, "seed": null}, "class_name": "VarianceScaling"}, "activation": "linear", "name": "conv2d_19"}, "name": "conv2d_19", "class_name": "Conv2D", "inbound_nodes": [[["add_3", 0, 0, {}]]]}, {"config": {"beta_regularizer": null, "trainable": true, "scale": true, "moving_variance_initializer": {"config": {}, "class_name": "Ones"}, "gamma_initializer": {"config": {}, "class_name": "Ones"}, "epsilon": 0.001, "axis": -1, "moving_mean_initializer": {"config": {}, "class_name": "Zeros"}, "momentum": 0.99, "beta_initializer": {"config": {}, "class_name": "Zeros"}, "beta_constraint": null, "center": true, "gamma_regularizer": null, "name": "batch_normalization_28", "gamma_constraint": null}, "name": "batch_normalization_28", "class_name": "BatchNormalization", "inbound_nodes": [[["conv2d_19", 0, 0, {}]]]}, {"config": {"trainable": true, "activation": "relu6", "name": "activation_19"}, "name": "activation_19", "class_name": "Activation", "inbound_nodes": [[["batch_normalization_28", 0, 0, {}]]]}, {"config": {"trainable": true, "depthwise_regularizer": null, "depthwise_constraint": null, "bias_constraint": null, "depth_multiplier": 1, "strides": [1, 1], "dilation_rate": [1, 1], "activity_regularizer": null, "kernel_size": [3, 3], "padding": "same", "bias_regularizer": null, "data_format": "channels_last", "bias_initializer": {"config": {}, "class_name": "Zeros"}, "use_bias": true, "depthwise_initializer": {"config": {"distribution": "uniform", "mode": "fan_avg", "scale": 1.0, "seed": null}, "class_name": "VarianceScaling"}, "activation": "linear", "name": "depthwise_conv2d_10"}, "name": "depthwise_conv2d_10", "class_name": "DepthwiseConv2D", "inbound_nodes": [[["activation_19", 0, 0, {}]]]}, {"config": {"beta_regularizer": null, "trainable": true, "scale": true, "moving_variance_initializer": {"config": {}, "class_name": "Ones"}, "gamma_initializer": {"config": {}, "class_name": "Ones"}, "epsilon": 0.001, "axis": -1, "moving_mean_initializer": {"config": {}, "class_name": "Zeros"}, "momentum": 0.99, "beta_initializer": {"config": {}, "class_name": "Zeros"}, "beta_constraint": null, "center": true, "gamma_regularizer": null, "name": "batch_normalization_29", "gamma_constraint": null}, "name": "batch_normalization_29", "class_name": "BatchNormalization", "inbound_nodes": [[["depthwise_conv2d_10", 0, 0, {}]]]}, {"config": {"trainable": true, "activation": "relu6", "name": "activation_20"}, "name": "activation_20", "class_name": "Activation", "inbound_nodes": [[["batch_normalization_29", 0, 0, {}]]]}, {"config": {"trainable": true, "filters": 96, "bias_initializer": {"config": {}, "class_name": "Zeros"}, "kernel_constraint": null, "bias_constraint": null, "strides": [1, 1], "dilation_rate": [1, 1], "activity_regularizer": null, "kernel_size": [1, 1], "padding": "same", "bias_regularizer": null, "kernel_regularizer": null, "data_format": "channels_last", "use_bias": true, "kernel_initializer": {"config": {"distribution": "uniform", "mode": "fan_avg", "scale": 1.0, "seed": null}, "class_name": "VarianceScaling"}, "activation": "linear", "name": "conv2d_20"}, "name": "conv2d_20", "class_name": "Conv2D", "inbound_nodes": [[["activation_20", 0, 0, {}]]]}, {"config": {"beta_regularizer": null, "trainable": true, "scale": true, "moving_variance_initializer": {"config": {}, "class_name": "Ones"}, "gamma_initializer": {"config": {}, "class_name": "Ones"}, "epsilon": 0.001, "axis": -1, "moving_mean_initializer": {"config": {}, "class_name": "Zeros"}, "momentum": 0.99, "beta_initializer": {"config": {}, "class_name": "Zeros"}, "beta_constraint": null, "center": true, "gamma_regularizer": null, "name": "batch_normalization_30", "gamma_constraint": null}, "name": "batch_normalization_30", "class_name": "BatchNormalization", "inbound_nodes": [[["conv2d_20", 0, 0, {}]]]}, {"config": {"trainable": true, "name": "add_4"}, "name": "add_4", "class_name": "Add", "inbound_nodes": [[["batch_normalization_30", 0, 0, {}], ["add_3", 0, 0, {}]]]}, {"config": {"trainable": true, "filters": 576, "bias_initializer": {"config": {}, "class_name": "Zeros"}, "kernel_constraint": null, "bias_constraint": null, "strides": [1, 1], "dilation_rate": [1, 1], "activity_regularizer": null, "kernel_size": [1, 1], "padding": "same", "bias_regularizer": null, "kernel_regularizer": null, "data_format": "channels_last", "use_bias": true, "kernel_initializer": {"config": {"distribution": "uniform", "mode": "fan_avg", "scale": 1.0, "seed": null}, "class_name": "VarianceScaling"}, "activation": "linear", "name": "conv2d_21"}, "name": "conv2d_21", "class_name": "Conv2D", "inbound_nodes": [[["add_4", 0, 0, {}]]]}, {"config": {"beta_regularizer": null, "trainable": true, "scale": true, "moving_variance_initializer": {"config": {}, "class_name": "Ones"}, "gamma_initializer": {"config": {}, "class_name": "Ones"}, "epsilon": 0.001, "axis": -1, "moving_mean_initializer": {"config": {}, "class_name": "Zeros"}, "momentum": 0.99, "beta_initializer": {"config": {}, "class_name": "Zeros"}, "beta_constraint": null, "center": true, "gamma_regularizer": null, "name": "batch_normalization_31", "gamma_constraint": null}, "name": "batch_normalization_31", "class_name": "BatchNormalization", "inbound_nodes": [[["conv2d_21", 0, 0, {}]]]}, {"config": {"trainable": true, "activation": "relu6", "name": "activation_21"}, "name": "activation_21", "class_name": "Activation", "inbound_nodes": [[["batch_normalization_31", 0, 0, {}]]]}, {"config": {"trainable": true, "depthwise_regularizer": null, "depthwise_constraint": null, "bias_constraint": null, "depth_multiplier": 1, "strides": [1, 1], "dilation_rate": [1, 1], "activity_regularizer": null, "kernel_size": [3, 3], "padding": "same", "bias_regularizer": null, "data_format": "channels_last", "bias_initializer": {"config": {}, "class_name": "Zeros"}, "use_bias": true, "depthwise_initializer": {"config": {"distribution": "uniform", "mode": "fan_avg", "scale": 1.0, "seed": null}, "class_name": "VarianceScaling"}, "activation": "linear", "name": "depthwise_conv2d_11"}, "name": "depthwise_conv2d_11", "class_name": "DepthwiseConv2D", "inbound_nodes": [[["activation_21", 0, 0, {}]]]}, {"config": {"beta_regularizer": null, "trainable": true, "scale": true, "moving_variance_initializer": {"config": {}, "class_name": "Ones"}, "gamma_initializer": {"config": {}, "class_name": "Ones"}, "epsilon": 0.001, "axis": -1, "moving_mean_initializer": {"config": {}, "class_name": "Zeros"}, "momentum": 0.99, "beta_initializer": {"config": {}, "class_name": "Zeros"}, "beta_constraint": null, "center": true, "gamma_regularizer": null, "name": "batch_normalization_32", "gamma_constraint": null}, "name": "batch_normalization_32", "class_name": "BatchNormalization", "inbound_nodes": [[["depthwise_conv2d_11", 0, 0, {}]]]}, {"config": {"trainable": true, "activation": "relu6", "name": "activation_22"}, "name": "activation_22", "class_name": "Activation", "inbound_nodes": [[["batch_normalization_32", 0, 0, {}]]]}, {"config": {"trainable": true, "filters": 96, "bias_initializer": {"config": {}, "class_name": "Zeros"}, "kernel_constraint": null, "bias_constraint": null, "strides": [1, 1], "dilation_rate": [1, 1], "activity_regularizer": null, "kernel_size": [1, 1], "padding": "same", "bias_regularizer": null, "kernel_regularizer": null, "data_format": "channels_last", "use_bias": true, "kernel_initializer": {"config": {"distribution": "uniform", "mode": "fan_avg", "scale": 1.0, "seed": null}, "class_name": "VarianceScaling"}, "activation": "linear", "name": "conv2d_22"}, "name": "conv2d_22", "class_name": "Conv2D", "inbound_nodes": [[["activation_22", 0, 0, {}]]]}, {"config": {"beta_regularizer": null, "trainable": true, "scale": true, "moving_variance_initializer": {"config": {}, "class_name": "Ones"}, "gamma_initializer": {"config": {}, "class_name": "Ones"}, "epsilon": 0.001, "axis": -1, "moving_mean_initializer": {"config": {}, "class_name": "Zeros"}, "momentum": 0.99, "beta_initializer": {"config": {}, "class_name": "Zeros"}, "beta_constraint": null, "center": true, "gamma_regularizer": null, "name": "batch_normalization_33", "gamma_constraint": null}, "name": "batch_normalization_33", "class_name": "BatchNormalization", "inbound_nodes": [[["conv2d_22", 0, 0, {}]]]}, {"config": {"trainable": true, "name": "add_5"}, "name": "add_5", "class_name": "Add", "inbound_nodes": [[["batch_normalization_33", 0, 0, {}], ["add_4", 0, 0, {}]]]}, {"config": {"trainable": true, "filters": 576, "bias_initializer": {"config": {}, "class_name": "Zeros"}, "kernel_constraint": null, "bias_constraint": null, "strides": [1, 1], "dilation_rate": [1, 1], "activity_regularizer": null, "kernel_size": [1, 1], "padding": "same", "bias_regularizer": null, "kernel_regularizer": null, "data_format": "channels_last", "use_bias": true, "kernel_initializer": {"config": {"distribution": "uniform", "mode": "fan_avg", "scale": 1.0, "seed": null}, "class_name": "VarianceScaling"}, "activation": "linear", "name": "conv2d_23"}, "name": "conv2d_23", "class_name": "Conv2D", "inbound_nodes": [[["add_5", 0, 0, {}]]]}, {"config": {"beta_regularizer": null, "trainable": true, "scale": true, "moving_variance_initializer": {"config": {}, "class_name": "Ones"}, "gamma_initializer": {"config": {}, "class_name": "Ones"}, "epsilon": 0.001, "axis": -1, "moving_mean_initializer": {"config": {}, "class_name": "Zeros"}, "momentum": 0.99, "beta_initializer": {"config": {}, "class_name": "Zeros"}, "beta_constraint": null, "center": true, "gamma_regularizer": null, "name": "batch_normalization_34", "gamma_constraint": null}, "name": "batch_normalization_34", "class_name": "BatchNormalization", "inbound_nodes": [[["conv2d_23", 0, 0, {}]]]}, {"config": {"trainable": true, "activation": "relu6", "name": "activation_23"}, "name": "activation_23", "class_name": "Activation", "inbound_nodes": [[["batch_normalization_34", 0, 0, {}]]]}, {"config": {"trainable": true, "depthwise_regularizer": null, "depthwise_constraint": null, "bias_constraint": null, "depth_multiplier": 1, "strides": [2, 2], "dilation_rate": [1, 1], "activity_regularizer": null, "kernel_size": [3, 3], "padding": "same", "bias_regularizer": null, "data_format": "channels_last", "bias_initializer": {"config": {}, "class_name": "Zeros"}, "use_bias": true, "depthwise_initializer": {"config": {"distribution": "uniform", "mode": "fan_avg", "scale": 1.0, "seed": null}, "class_name": "VarianceScaling"}, "activation": "linear", "name": "depthwise_conv2d_12"}, "name": "depthwise_conv2d_12", "class_name": "DepthwiseConv2D", "inbound_nodes": [[["activation_23", 0, 0, {}]]]}, {"config": {"beta_regularizer": null, "trainable": true, "scale": true, "moving_variance_initializer": {"config": {}, "class_name": "Ones"}, "gamma_initializer": {"config": {}, "class_name": "Ones"}, "epsilon": 0.001, "axis": -1, "moving_mean_initializer": {"config": {}, "class_name": "Zeros"}, "momentum": 0.99, "beta_initializer": {"config": {}, "class_name": "Zeros"}, "beta_constraint": null, "center": true, "gamma_regularizer": null, "name": "batch_normalization_35", "gamma_constraint": null}, "name": "batch_normalization_35", "class_name": "BatchNormalization", "inbound_nodes": [[["depthwise_conv2d_12", 0, 0, {}]]]}, {"config": {"trainable": true, "activation": "relu6", "name": "activation_24"}, "name": "activation_24", "class_name": "Activation", "inbound_nodes": [[["batch_normalization_35", 0, 0, {}]]]}, {"config": {"trainable": true, "filters": 160, "bias_initializer": {"config": {}, "class_name": "Zeros"}, "kernel_constraint": null, "bias_constraint": null, "strides": [1, 1], "dilation_rate": [1, 1], "activity_regularizer": null, "kernel_size": [1, 1], "padding": "same", "bias_regularizer": null, "kernel_regularizer": null, "data_format": "channels_last", "use_bias": true, "kernel_initializer": {"config": {"distribution": "uniform", "mode": "fan_avg", "scale": 1.0, "seed": null}, "class_name": "VarianceScaling"}, "activation": "linear", "name": "conv2d_24"}, "name": "conv2d_24", "class_name": "Conv2D", "inbound_nodes": [[["activation_24", 0, 0, {}]]]}, {"config": {"beta_regularizer": null, "trainable": true, "scale": true, "moving_variance_initializer": {"config": {}, "class_name": "Ones"}, "gamma_initializer": {"config": {}, "class_name": "Ones"}, "epsilon": 0.001, "axis": -1, "moving_mean_initializer": {"config": {}, "class_name": "Zeros"}, "momentum": 0.99, "beta_initializer": {"config": {}, "class_name": "Zeros"}, "beta_constraint": null, "center": true, "gamma_regularizer": null, "name": "batch_normalization_36", "gamma_constraint": null}, "name": "batch_normalization_36", "class_name": "BatchNormalization", "inbound_nodes": [[["conv2d_24", 0, 0, {}]]]}, {"config": {"trainable": true, "filters": 960, "bias_initializer": {"config": {}, "class_name": "Zeros"}, "kernel_constraint": null, "bias_constraint": null, "strides": [1, 1], "dilation_rate": [1, 1], "activity_regularizer": null, "kernel_size": [1, 1], "padding": "same", "bias_regularizer": null, "kernel_regularizer": null, "data_format": "channels_last", "use_bias": true, "kernel_initializer": {"config": {"distribution": "uniform", "mode": "fan_avg", "scale": 1.0, "seed": null}, "class_name": "VarianceScaling"}, "activation": "linear", "name": "conv2d_25"}, "name": "conv2d_25", "class_name": "Conv2D", "inbound_nodes": [[["batch_normalization_36", 0, 0, {}]]]}, {"config": {"beta_regularizer": null, "trainable": true, "scale": true, "moving_variance_initializer": {"config": {}, "class_name": "Ones"}, "gamma_initializer": {"config": {}, "class_name": "Ones"}, "epsilon": 0.001, "axis": -1, "moving_mean_initializer": {"config": {}, "class_name": "Zeros"}, "momentum": 0.99, "beta_initializer": {"config": {}, "class_name": "Zeros"}, "beta_constraint": null, "center": true, "gamma_regularizer": null, "name": "batch_normalization_37", "gamma_constraint": null}, "name": "batch_normalization_37", "class_name": "BatchNormalization", "inbound_nodes": [[["conv2d_25", 0, 0, {}]]]}, {"config": {"trainable": true, "activation": "relu6", "name": "activation_25"}, "name": "activation_25", "class_name": "Activation", "inbound_nodes": [[["batch_normalization_37", 0, 0, {}]]]}, {"config": {"trainable": true, "depthwise_regularizer": null, "depthwise_constraint": null, "bias_constraint": null, "depth_multiplier": 1, "strides": [1, 1], "dilation_rate": [1, 1], "activity_regularizer": null, "kernel_size": [3, 3], "padding": "same", "bias_regularizer": null, "data_format": "channels_last", "bias_initializer": {"config": {}, "class_name": "Zeros"}, "use_bias": true, "depthwise_initializer": {"config": {"distribution": "uniform", "mode": "fan_avg", "scale": 1.0, "seed": null}, "class_name": "VarianceScaling"}, "activation": "linear", "name": "depthwise_conv2d_13"}, "name": "depthwise_conv2d_13", "class_name": "DepthwiseConv2D", "inbound_nodes": [[["activation_25", 0, 0, {}]]]}, {"config": {"beta_regularizer": null, "trainable": true, "scale": true, "moving_variance_initializer": {"config": {}, "class_name": "Ones"}, "gamma_initializer": {"config": {}, "class_name": "Ones"}, "epsilon": 0.001, "axis": -1, "moving_mean_initializer": {"config": {}, "class_name": "Zeros"}, "momentum": 0.99, "beta_initializer": {"config": {}, "class_name": "Zeros"}, "beta_constraint": null, "center": true, "gamma_regularizer": null, "name": "batch_normalization_38", "gamma_constraint": null}, "name": "batch_normalization_38", "class_name": "BatchNormalization", "inbound_nodes": [[["depthwise_conv2d_13", 0, 0, {}]]]}, {"config": {"trainable": true, "activation": "relu6", "name": "activation_26"}, "name": "activation_26", "class_name": "Activation", "inbound_nodes": [[["batch_normalization_38", 0, 0, {}]]]}, {"config": {"trainable": true, "filters": 160, "bias_initializer": {"config": {}, "class_name": "Zeros"}, "kernel_constraint": null, "bias_constraint": null, "strides": [1, 1], "dilation_rate": [1, 1], "activity_regularizer": null, "kernel_size": [1, 1], "padding": "same", "bias_regularizer": null, "kernel_regularizer": null, "data_format": "channels_last", "use_bias": true, "kernel_initializer": {"config": {"distribution": "uniform", "mode": "fan_avg", "scale": 1.0, "seed": null}, "class_name": "VarianceScaling"}, "activation": "linear", "name": "conv2d_26"}, "name": "conv2d_26", "class_name": "Conv2D", "inbound_nodes": [[["activation_26", 0, 0, {}]]]}, {"config": {"beta_regularizer": null, "trainable": true, "scale": true, "moving_variance_initializer": {"config": {}, "class_name": "Ones"}, "gamma_initializer": {"config": {}, "class_name": "Ones"}, "epsilon": 0.001, "axis": -1, "moving_mean_initializer": {"config": {}, "class_name": "Zeros"}, "momentum": 0.99, "beta_initializer": {"config": {}, "class_name": "Zeros"}, "beta_constraint": null, "center": true, "gamma_regularizer": null, "name": "batch_normalization_39", "gamma_constraint": null}, "name": "batch_normalization_39", "class_name": "BatchNormalization", "inbound_nodes": [[["conv2d_26", 0, 0, {}]]]}, {"config": {"trainable": true, "name": "add_6"}, "name": "add_6", "class_name": "Add", "inbound_nodes": [[["batch_normalization_39", 0, 0, {}], ["batch_normalization_36", 0, 0, {}]]]}, {"config": {"trainable": true, "filters": 960, "bias_initializer": {"config": {}, "class_name": "Zeros"}, "kernel_constraint": null, "bias_constraint": null, "strides": [1, 1], "dilation_rate": [1, 1], "activity_regularizer": null, "kernel_size": [1, 1], "padding": "same", "bias_regularizer": null, "kernel_regularizer": null, "data_format": "channels_last", "use_bias": true, "kernel_initializer": {"config": {"distribution": "uniform", "mode": "fan_avg", "scale": 1.0, "seed": null}, "class_name": "VarianceScaling"}, "activation": "linear", "name": "conv2d_27"}, "name": "conv2d_27", "class_name": "Conv2D", "inbound_nodes": [[["add_6", 0, 0, {}]]]}, {"config": {"beta_regularizer": null, "trainable": true, "scale": true, "moving_variance_initializer": {"config": {}, "class_name": "Ones"}, "gamma_initializer": {"config": {}, "class_name": "Ones"}, "epsilon": 0.001, "axis": -1, "moving_mean_initializer": {"config": {}, "class_name": "Zeros"}, "momentum": 0.99, "beta_initializer": {"config": {}, "class_name": "Zeros"}, "beta_constraint": null, "center": true, "gamma_regularizer": null, "name": "batch_normalization_40", "gamma_constraint": null}, "name": "batch_normalization_40", "class_name": "BatchNormalization", "inbound_nodes": [[["conv2d_27", 0, 0, {}]]]}, {"config": {"trainable": true, "activation": "relu6", "name": "activation_27"}, "name": "activation_27", "class_name": "Activation", "inbound_nodes": [[["batch_normalization_40", 0, 0, {}]]]}, {"config": {"trainable": true, "depthwise_regularizer": null, "depthwise_constraint": null, "bias_constraint": null, "depth_multiplier": 1, "strides": [1, 1], "dilation_rate": [1, 1], "activity_regularizer": null, "kernel_size": [3, 3], "padding": "same", "bias_regularizer": null, "data_format": "channels_last", "bias_initializer": {"config": {}, "class_name": "Zeros"}, "use_bias": true, "depthwise_initializer": {"config": {"distribution": "uniform", "mode": "fan_avg", "scale": 1.0, "seed": null}, "class_name": "VarianceScaling"}, "activation": "linear", "name": "depthwise_conv2d_14"}, "name": "depthwise_conv2d_14", "class_name": "DepthwiseConv2D", "inbound_nodes": [[["activation_27", 0, 0, {}]]]}, {"config": {"beta_regularizer": null, "trainable": true, "scale": true, "moving_variance_initializer": {"config": {}, "class_name": "Ones"}, "gamma_initializer": {"config": {}, "class_name": "Ones"}, "epsilon": 0.001, "axis": -1, "moving_mean_initializer": {"config": {}, "class_name": "Zeros"}, "momentum": 0.99, "beta_initializer": {"config": {}, "class_name": "Zeros"}, "beta_constraint": null, "center": true, "gamma_regularizer": null, "name": "batch_normalization_41", "gamma_constraint": null}, "name": "batch_normalization_41", "class_name": "BatchNormalization", "inbound_nodes": [[["depthwise_conv2d_14", 0, 0, {}]]]}, {"config": {"trainable": true, "activation": "relu6", "name": "activation_28"}, "name": "activation_28", "class_name": "Activation", "inbound_nodes": [[["batch_normalization_41", 0, 0, {}]]]}, {"config": {"trainable": true, "filters": 160, "bias_initializer": {"config": {}, "class_name": "Zeros"}, "kernel_constraint": null, "bias_constraint": null, "strides": [1, 1], "dilation_rate": [1, 1], "activity_regularizer": null, "kernel_size": [1, 1], "padding": "same", "bias_regularizer": null, "kernel_regularizer": null, "data_format": "channels_last", "use_bias": true, "kernel_initializer": {"config": {"distribution": "uniform", "mode": "fan_avg", "scale": 1.0, "seed": null}, "class_name": "VarianceScaling"}, "activation": "linear", "name": "conv2d_28"}, "name": "conv2d_28", "class_name": "Conv2D", "inbound_nodes": [[["activation_28", 0, 0, {}]]]}, {"config": {"beta_regularizer": null, "trainable": true, "scale": true, "moving_variance_initializer": {"config": {}, "class_name": "Ones"}, "gamma_initializer": {"config": {}, "class_name": "Ones"}, "epsilon": 0.001, "axis": -1, "moving_mean_initializer": {"config": {}, "class_name": "Zeros"}, "momentum": 0.99, "beta_initializer": {"config": {}, "class_name": "Zeros"}, "beta_constraint": null, "center": true, "gamma_regularizer": null, "name": "batch_normalization_42", "gamma_constraint": null}, "name": "batch_normalization_42", "class_name": "BatchNormalization", "inbound_nodes": [[["conv2d_28", 0, 0, {}]]]}, {"config": {"trainable": true, "name": "add_7"}, "name": "add_7", "class_name": "Add", "inbound_nodes": [[["batch_normalization_42", 0, 0, {}], ["add_6", 0, 0, {}]]]}, {"config": {"trainable": true, "filters": 960, "bias_initializer": {"config": {}, "class_name": "Zeros"}, "kernel_constraint": null, "bias_constraint": null, "strides": [1, 1], "dilation_rate": [1, 1], "activity_regularizer": null, "kernel_size": [1, 1], "padding": "same", "bias_regularizer": null, "kernel_regularizer": null, "data_format": "channels_last", "use_bias": true, "kernel_initializer": {"config": {"distribution": "uniform", "mode": "fan_avg", "scale": 1.0, "seed": null}, "class_name": "VarianceScaling"}, "activation": "linear", "name": "conv2d_29"}, "name": "conv2d_29", "class_name": "Conv2D", "inbound_nodes": [[["add_7", 0, 0, {}]]]}, {"config": {"beta_regularizer": null, "trainable": true, "scale": true, "moving_variance_initializer": {"config": {}, "class_name": "Ones"}, "gamma_initializer": {"config": {}, "class_name": "Ones"}, "epsilon": 0.001, "axis": -1, "moving_mean_initializer": {"config": {}, "class_name": "Zeros"}, "momentum": 0.99, "beta_initializer": {"config": {}, "class_name": "Zeros"}, "beta_constraint": null, "center": true, "gamma_regularizer": null, "name": "batch_normalization_43", "gamma_constraint": null}, "name": "batch_normalization_43", "class_name": "BatchNormalization", "inbound_nodes": [[["conv2d_29", 0, 0, {}]]]}, {"config": {"trainable": true, "activation": "relu6", "name": "activation_29"}, "name": "activation_29", "class_name": "Activation", "inbound_nodes": [[["batch_normalization_43", 0, 0, {}]]]}, {"config": {"trainable": true, "depthwise_regularizer": null, "depthwise_constraint": null, "bias_constraint": null, "depth_multiplier": 1, "strides": [1, 1], "dilation_rate": [1, 1], "activity_regularizer": null, "kernel_size": [3, 3], "padding": "same", "bias_regularizer": null, "data_format": "channels_last", "bias_initializer": {"config": {}, "class_name": "Zeros"}, "use_bias": true, "depthwise_initializer": {"config": {"distribution": "uniform", "mode": "fan_avg", "scale": 1.0, "seed": null}, "class_name": "VarianceScaling"}, "activation": "linear", "name": "depthwise_conv2d_15"}, "name": "depthwise_conv2d_15", "class_name": "DepthwiseConv2D", "inbound_nodes": [[["activation_29", 0, 0, {}]]]}, {"config": {"beta_regularizer": null, "trainable": true, "scale": true, "moving_variance_initializer": {"config": {}, "class_name": "Ones"}, "gamma_initializer": {"config": {}, "class_name": "Ones"}, "epsilon": 0.001, "axis": -1, "moving_mean_initializer": {"config": {}, "class_name": "Zeros"}, "momentum": 0.99, "beta_initializer": {"config": {}, "class_name": "Zeros"}, "beta_constraint": null, "center": true, "gamma_regularizer": null, "name": "batch_normalization_44", "gamma_constraint": null}, "name": "batch_normalization_44", "class_name": "BatchNormalization", "inbound_nodes": [[["depthwise_conv2d_15", 0, 0, {}]]]}, {"config": {"trainable": true, "activation": "relu6", "name": "activation_30"}, "name": "activation_30", "class_name": "Activation", "inbound_nodes": [[["batch_normalization_44", 0, 0, {}]]]}, {"config": {"trainable": true, "filters": 320, "bias_initializer": {"config": {}, "class_name": "Zeros"}, "kernel_constraint": null, "bias_constraint": null, "strides": [1, 1], "dilation_rate": [1, 1], "activity_regularizer": null, "kernel_size": [1, 1], "padding": "same", "bias_regularizer": null, "kernel_regularizer": null, "data_format": "channels_last", "use_bias": true, "kernel_initializer": {"config": {"distribution": "uniform", "mode": "fan_avg", "scale": 1.0, "seed": null}, "class_name": "VarianceScaling"}, "activation": "linear", "name": "conv2d_30"}, "name": "conv2d_30", "class_name": "Conv2D", "inbound_nodes": [[["activation_30", 0, 0, {}]]]}, {"config": {"beta_regularizer": null, "trainable": true, "scale": true, "moving_variance_initializer": {"config": {}, "class_name": "Ones"}, "gamma_initializer": {"config": {}, "class_name": "Ones"}, "epsilon": 0.001, "axis": -1, "moving_mean_initializer": {"config": {}, "class_name": "Zeros"}, "momentum": 0.99, "beta_initializer": {"config": {}, "class_name": "Zeros"}, "beta_constraint": null, "center": true, "gamma_regularizer": null, "name": "batch_normalization_45", "gamma_constraint": null}, "name": "batch_normalization_45", "class_name": "BatchNormalization", "inbound_nodes": [[["conv2d_30", 0, 0, {}]]]}, {"config": {"trainable": true, "filters": 1280, "bias_initializer": {"config": {}, "class_name": "Zeros"}, "kernel_constraint": null, "bias_constraint": null, "strides": [1, 1], "dilation_rate": [1, 1], "activity_regularizer": null, "kernel_size": [1, 1], "padding": "same", "bias_regularizer": null, "kernel_regularizer": null, "data_format": "channels_last", "use_bias": true, "kernel_initializer": {"config": {"distribution": "uniform", "mode": "fan_avg", "scale": 1.0, "seed": null}, "class_name": "VarianceScaling"}, "activation": "linear", "name": "conv2d_31"}, "name": "conv2d_31", "class_name": "Conv2D", "inbound_nodes": [[["batch_normalization_45", 0, 0, {}]]]}, {"config": {"beta_regularizer": null, "trainable": true, "scale": true, "moving_variance_initializer": {"config": {}, "class_name": "Ones"}, "gamma_initializer": {"config": {}, "class_name": "Ones"}, "epsilon": 0.001, "axis": -1, "moving_mean_initializer": {"config": {}, "class_name": "Zeros"}, "momentum": 0.99, "beta_initializer": {"config": {}, "class_name": "Zeros"}, "beta_constraint": null, "center": true, "gamma_regularizer": null, "name": "batch_normalization_46", "gamma_constraint": null}, "name": "batch_normalization_46", "class_name": "BatchNormalization", "inbound_nodes": [[["conv2d_31", 0, 0, {}]]]}, {"config": {"trainable": true, "activation": "relu6", "name": "activation_31"}, "name": "activation_31", "class_name": "Activation", "inbound_nodes": [[["batch_normalization_46", 0, 0, {}]]]}, {"config": {"trainable": true, "name": "global_average_pooling2d_1", "data_format": "channels_last"}, "name": "global_average_pooling2d_1", "class_name": "GlobalAveragePooling2D", "inbound_nodes": [[["activation_31", 0, 0, {}]]]}, {"config": {"trainable": true, "target_shape": [1, 1, 1280], "name": "reshape_1"}, "name": "reshape_1", "class_name": "Reshape", "inbound_nodes": [[["global_average_pooling2d_1", 0, 0, {}]]]}, {"config": {"trainable": true, "rate": 0.3, "noise_shape": null, "name": "Dropout", "seed": null}, "name": "Dropout", "class_name": "Dropout", "inbound_nodes": [[["reshape_1", 0, 0, {}]]]}, {"config": {"trainable": true, "filters": 7, "bias_initializer": {"config": {}, "class_name": "Zeros"}, "kernel_constraint": null, "bias_constraint": null, "strides": [1, 1], "dilation_rate": [1, 1], "activity_regularizer": null, "kernel_size": [1, 1], "padding": "same", "bias_regularizer": null, "kernel_regularizer": null, "data_format": "channels_last", "use_bias": true, "kernel_initializer": {"config": {"distribution": "uniform", "mode": "fan_avg", "scale": 1.0, "seed": null}, "class_name": "VarianceScaling"}, "activation": "linear", "name": "conv2d_32"}, "name": "conv2d_32", "class_name": "Conv2D", "inbound_nodes": [[["Dropout", 0, 0, {}]]]}, {"config": {"trainable": true, "activation": "softmax", "name": "softmax"}, "name": "softmax", "class_name": "Activation", "inbound_nodes": [[["conv2d_32", 0, 0, {}]]]}, {"config": {"trainable": true, "target_shape": [7], "name": "reshape_2"}, "name": "reshape_2", "class_name": "Reshape", "inbound_nodes": [[["softmax", 0, 0, {}]]]}], "input_layers": [["input_1", 0, 0]], "name": "model_1"}, "class_name": "Model"}, "training_config": {"loss": "categorical_crossentropy", "sample_weight_mode": null, "metrics": ["accuracy"], "optimizer_config": {"config": {"beta_2": 0.9990000128746033, "beta_1": 0.8999999761581421, "epsilon": 1e-07, "lr": 1.000000082740371e-07, "amsgrad": false, "decay": 0.0}, "class_name": "Adam"}, "loss_weights": null}}, "weightsManifest": [{"paths": ["group1-shard1of3.bin", "group1-shard2of3.bin", "group1-shard3of3.bin"], "weights": [{"name": "batch_normalization_1/gamma", "shape": [16], "dtype": "float32"}, {"name": "batch_normalization_1/beta", "shape": [16], "dtype": "float32"}, {"name": "batch_normalization_1/moving_mean", "shape": [16], "dtype": "float32"}, {"name": "batch_normalization_1/moving_variance", "shape": [16], "dtype": "float32"}, {"name": "batch_normalization_10/gamma", "shape": [48], "dtype": "float32"}, {"name": "batch_normalization_10/beta", "shape": [48], "dtype": "float32"}, {"name": "batch_normalization_10/moving_mean", "shape": [48], "dtype": "float32"}, {"name": "batch_normalization_10/moving_variance", "shape": [48], "dtype": "float32"}, {"name": "batch_normalization_11/gamma", "shape": [48], "dtype": "float32"}, {"name": "batch_normalization_11/beta", "shape": [48], "dtype": "float32"}, {"name": "batch_normalization_11/moving_mean", "shape": [48], "dtype": "float32"}, {"name": "batch_normalization_11/moving_variance", "shape": [48], "dtype": "float32"}, {"name": "batch_normalization_12/gamma", "shape": [32], "dtype": "float32"}, {"name": "batch_normalization_12/beta", "shape": [32], "dtype": "float32"}, {"name": "batch_normalization_12/moving_mean", "shape": [32], "dtype": "float32"}, {"name": "batch_normalization_12/moving_variance", "shape": [32], "dtype": "float32"}, {"name": "batch_normalization_13/gamma", "shape": [192], "dtype": "float32"}, {"name": "batch_normalization_13/beta", "shape": [192], "dtype": "float32"}, {"name": "batch_normalization_13/moving_mean", "shape": [192], "dtype": "float32"}, {"name": "batch_normalization_13/moving_variance", "shape": [192], "dtype": "float32"}, {"name": "batch_normalization_14/gamma", "shape": [192], "dtype": "float32"}, {"name": "batch_normalization_14/beta", "shape": [192], "dtype": "float32"}, {"name": "batch_normalization_14/moving_mean", "shape": [192], "dtype": "float32"}, {"name": "batch_normalization_14/moving_variance", "shape": [192], "dtype": "float32"}, {"name": "batch_normalization_15/gamma", "shape": [64], "dtype": "float32"}, {"name": "batch_normalization_15/beta", "shape": [64], "dtype": "float32"}, {"name": "batch_normalization_15/moving_mean", "shape": [64], "dtype": "float32"}, {"name": "batch_normalization_15/moving_variance", "shape": [64], "dtype": "float32"}, {"name": "batch_normalization_16/gamma", "shape": [384], "dtype": "float32"}, {"name": "batch_normalization_16/beta", "shape": [384], "dtype": "float32"}, {"name": "batch_normalization_16/moving_mean", "shape": [384], "dtype": "float32"}, {"name": "batch_normalization_16/moving_variance", "shape": [384], "dtype": "float32"}, {"name": "batch_normalization_17/gamma", "shape": [384], "dtype": "float32"}, {"name": "batch_normalization_17/beta", "shape": [384], "dtype": "float32"}, {"name": "batch_normalization_17/moving_mean", "shape": [384], "dtype": "float32"}, {"name": "batch_normalization_17/moving_variance", "shape": [384], "dtype": "float32"}, {"name": "batch_normalization_18/gamma", "shape": [64], "dtype": "float32"}, {"name": "batch_normalization_18/beta", "shape": [64], "dtype": "float32"}, {"name": "batch_normalization_18/moving_mean", "shape": [64], "dtype": "float32"}, {"name": "batch_normalization_18/moving_variance", "shape": [64], "dtype": "float32"}, {"name": "batch_normalization_19/gamma", "shape": [384], "dtype": "float32"}, {"name": "batch_normalization_19/beta", "shape": [384], "dtype": "float32"}, {"name": "batch_normalization_19/moving_mean", "shape": [384], "dtype": "float32"}, {"name": "batch_normalization_19/moving_variance", "shape": [384], "dtype": "float32"}, {"name": "batch_normalization_2/gamma", "shape": [16], "dtype": "float32"}, {"name": "batch_normalization_2/beta", "shape": [16], "dtype": "float32"}, {"name": "batch_normalization_2/moving_mean", "shape": [16], "dtype": "float32"}, {"name": "batch_normalization_2/moving_variance", "shape": [16], "dtype": "float32"}, {"name": "batch_normalization_20/gamma", "shape": [384], "dtype": "float32"}, {"name": "batch_normalization_20/beta", "shape": [384], "dtype": "float32"}, {"name": "batch_normalization_20/moving_mean", "shape": [384], "dtype": "float32"}, {"name": "batch_normalization_20/moving_variance", "shape": [384], "dtype": "float32"}, {"name": "batch_normalization_21/gamma", "shape": [64], "dtype": "float32"}, {"name": "batch_normalization_21/beta", "shape": [64], "dtype": "float32"}, {"name": "batch_normalization_21/moving_mean", "shape": [64], "dtype": "float32"}, {"name": "batch_normalization_21/moving_variance", "shape": [64], "dtype": "float32"}, {"name": "batch_normalization_22/gamma", "shape": [384], "dtype": "float32"}, {"name": "batch_normalization_22/beta", "shape": [384], "dtype": "float32"}, {"name": "batch_normalization_22/moving_mean", "shape": [384], "dtype": "float32"}, {"name": "batch_normalization_22/moving_variance", "shape": [384], "dtype": "float32"}, {"name": "batch_normalization_23/gamma", "shape": [384], "dtype": "float32"}, {"name": "batch_normalization_23/beta", "shape": [384], "dtype": "float32"}, {"name": "batch_normalization_23/moving_mean", "shape": [384], "dtype": "float32"}, {"name": "batch_normalization_23/moving_variance", "shape": [384], "dtype": "float32"}, {"name": "batch_normalization_24/gamma", "shape": [96], "dtype": "float32"}, {"name": "batch_normalization_24/beta", "shape": [96], "dtype": "float32"}, {"name": "batch_normalization_24/moving_mean", "shape": [96], "dtype": "float32"}, {"name": "batch_normalization_24/moving_variance", "shape": [96], "dtype": "float32"}, {"name": "batch_normalization_25/gamma", "shape": [576], "dtype": "float32"}, {"name": "batch_normalization_25/beta", "shape": [576], "dtype": "float32"}, {"name": "batch_normalization_25/moving_mean", "shape": [576], "dtype": "float32"}, {"name": "batch_normalization_25/moving_variance", "shape": [576], "dtype": "float32"}, {"name": "batch_normalization_26/gamma", "shape": [576], "dtype": "float32"}, {"name": "batch_normalization_26/beta", "shape": [576], "dtype": "float32"}, {"name": "batch_normalization_26/moving_mean", "shape": [576], "dtype": "float32"}, {"name": "batch_normalization_26/moving_variance", "shape": [576], "dtype": "float32"}, {"name": "batch_normalization_27/gamma", "shape": [96], "dtype": "float32"}, {"name": "batch_normalization_27/beta", "shape": [96], "dtype": "float32"}, {"name": "batch_normalization_27/moving_mean", "shape": [96], "dtype": "float32"}, {"name": "batch_normalization_27/moving_variance", "shape": [96], "dtype": "float32"}, {"name": "batch_normalization_28/gamma", "shape": [576], "dtype": "float32"}, {"name": "batch_normalization_28/beta", "shape": [576], "dtype": "float32"}, {"name": "batch_normalization_28/moving_mean", "shape": [576], "dtype": "float32"}, {"name": "batch_normalization_28/moving_variance", "shape": [576], "dtype": "float32"}, {"name": "batch_normalization_29/gamma", "shape": [576], "dtype": "float32"}, {"name": "batch_normalization_29/beta", "shape": [576], "dtype": "float32"}, {"name": "batch_normalization_29/moving_mean", "shape": [576], "dtype": "float32"}, {"name": "batch_normalization_29/moving_variance", "shape": [576], "dtype": "float32"}, {"name": "batch_normalization_3/gamma", "shape": [16], "dtype": "float32"}, {"name": "batch_normalization_3/beta", "shape": [16], "dtype": "float32"}, {"name": "batch_normalization_3/moving_mean", "shape": [16], "dtype": "float32"}, {"name": "batch_normalization_3/moving_variance", "shape": [16], "dtype": "float32"}, {"name": "batch_normalization_30/gamma", "shape": [96], "dtype": "float32"}, {"name": "batch_normalization_30/beta", "shape": [96], "dtype": "float32"}, {"name": "batch_normalization_30/moving_mean", "shape": [96], "dtype": "float32"}, {"name": "batch_normalization_30/moving_variance", "shape": [96], "dtype": "float32"}, {"name": "batch_normalization_31/gamma", "shape": [576], "dtype": "float32"}, {"name": "batch_normalization_31/beta", "shape": [576], "dtype": "float32"}, {"name": "batch_normalization_31/moving_mean", "shape": [576], "dtype": "float32"}, {"name": "batch_normalization_31/moving_variance", "shape": [576], "dtype": "float32"}, {"name": "batch_normalization_32/gamma", "shape": [576], "dtype": "float32"}, {"name": "batch_normalization_32/beta", "shape": [576], "dtype": "float32"}, {"name": "batch_normalization_32/moving_mean", "shape": [576], "dtype": "float32"}, {"name": "batch_normalization_32/moving_variance", "shape": [576], "dtype": "float32"}, {"name": "batch_normalization_33/gamma", "shape": [96], "dtype": "float32"}, {"name": "batch_normalization_33/beta", "shape": [96], "dtype": "float32"}, {"name": "batch_normalization_33/moving_mean", "shape": [96], "dtype": "float32"}, {"name": "batch_normalization_33/moving_variance", "shape": [96], "dtype": "float32"}, {"name": "batch_normalization_34/gamma", "shape": [576], "dtype": "float32"}, {"name": "batch_normalization_34/beta", "shape": [576], "dtype": "float32"}, {"name": "batch_normalization_34/moving_mean", "shape": [576], "dtype": "float32"}, {"name": "batch_normalization_34/moving_variance", "shape": [576], "dtype": "float32"}, {"name": "batch_normalization_35/gamma", "shape": [576], "dtype": "float32"}, {"name": "batch_normalization_35/beta", "shape": [576], "dtype": "float32"}, {"name": "batch_normalization_35/moving_mean", "shape": [576], "dtype": "float32"}, {"name": "batch_normalization_35/moving_variance", "shape": [576], "dtype": "float32"}, {"name": "batch_normalization_36/gamma", "shape": [160], "dtype": "float32"}, {"name": "batch_normalization_36/beta", "shape": [160], "dtype": "float32"}, {"name": "batch_normalization_36/moving_mean", "shape": [160], "dtype": "float32"}, {"name": "batch_normalization_36/moving_variance", "shape": [160], "dtype": "float32"}, {"name": "batch_normalization_37/gamma", "shape": [960], "dtype": "float32"}, {"name": "batch_normalization_37/beta", "shape": [960], "dtype": "float32"}, {"name": "batch_normalization_37/moving_mean", "shape": [960], "dtype": "float32"}, {"name": "batch_normalization_37/moving_variance", "shape": [960], "dtype": "float32"}, {"name": "batch_normalization_38/gamma", "shape": [960], "dtype": "float32"}, {"name": "batch_normalization_38/beta", "shape": [960], "dtype": "float32"}, {"name": "batch_normalization_38/moving_mean", "shape": [960], "dtype": "float32"}, {"name": "batch_normalization_38/moving_variance", "shape": [960], "dtype": "float32"}, {"name": "batch_normalization_39/gamma", "shape": [160], "dtype": "float32"}, {"name": "batch_normalization_39/beta", "shape": [160], "dtype": "float32"}, {"name": "batch_normalization_39/moving_mean", "shape": [160], "dtype": "float32"}, {"name": "batch_normalization_39/moving_variance", "shape": [160], "dtype": "float32"}, {"name": "batch_normalization_4/gamma", "shape": [16], "dtype": "float32"}, {"name": "batch_normalization_4/beta", "shape": [16], "dtype": "float32"}, {"name": "batch_normalization_4/moving_mean", "shape": [16], "dtype": "float32"}, {"name": "batch_normalization_4/moving_variance", "shape": [16], "dtype": "float32"}, {"name": "batch_normalization_40/gamma", "shape": [960], "dtype": "float32"}, {"name": "batch_normalization_40/beta", "shape": [960], "dtype": "float32"}, {"name": "batch_normalization_40/moving_mean", "shape": [960], "dtype": "float32"}, {"name": "batch_normalization_40/moving_variance", "shape": [960], "dtype": "float32"}, {"name": "batch_normalization_41/gamma", "shape": [960], "dtype": "float32"}, {"name": "batch_normalization_41/beta", "shape": [960], "dtype": "float32"}, {"name": "batch_normalization_41/moving_mean", "shape": [960], "dtype": "float32"}, {"name": "batch_normalization_41/moving_variance", "shape": [960], "dtype": "float32"}, {"name": "batch_normalization_42/gamma", "shape": [160], "dtype": "float32"}, {"name": "batch_normalization_42/beta", "shape": [160], "dtype": "float32"}, {"name": "batch_normalization_42/moving_mean", "shape": [160], "dtype": "float32"}, {"name": "batch_normalization_42/moving_variance", "shape": [160], "dtype": "float32"}, {"name": "batch_normalization_43/gamma", "shape": [960], "dtype": "float32"}, {"name": "batch_normalization_43/beta", "shape": [960], "dtype": "float32"}, {"name": "batch_normalization_43/moving_mean", "shape": [960], "dtype": "float32"}, {"name": "batch_normalization_43/moving_variance", "shape": [960], "dtype": "float32"}, {"name": "batch_normalization_44/gamma", "shape": [960], "dtype": "float32"}, {"name": "batch_normalization_44/beta", "shape": [960], "dtype": "float32"}, {"name": "batch_normalization_44/moving_mean", "shape": [960], "dtype": "float32"}, {"name": "batch_normalization_44/moving_variance", "shape": [960], "dtype": "float32"}, {"name": "batch_normalization_45/gamma", "shape": [320], "dtype": "float32"}, {"name": "batch_normalization_45/beta", "shape": [320], "dtype": "float32"}, {"name": "batch_normalization_45/moving_mean", "shape": [320], "dtype": "float32"}, {"name": "batch_normalization_45/moving_variance", "shape": [320], "dtype": "float32"}, {"name": "batch_normalization_46/gamma", "shape": [1280], "dtype": "float32"}, {"name": "batch_normalization_46/beta", "shape": [1280], "dtype": "float32"}, {"name": "batch_normalization_46/moving_mean", "shape": [1280], "dtype": "float32"}, {"name": "batch_normalization_46/moving_variance", "shape": [1280], "dtype": "float32"}, {"name": "batch_normalization_5/gamma", "shape": [16], "dtype": "float32"}, {"name": "batch_normalization_5/beta", "shape": [16], "dtype": "float32"}, {"name": "batch_normalization_5/moving_mean", "shape": [16], "dtype": "float32"}, {"name": "batch_normalization_5/moving_variance", "shape": [16], "dtype": "float32"}, {"name": "batch_normalization_6/gamma", "shape": [16], "dtype": "float32"}, {"name": "batch_normalization_6/beta", "shape": [16], "dtype": "float32"}, {"name": "batch_normalization_6/moving_mean", "shape": [16], "dtype": "float32"}, {"name": "batch_normalization_6/moving_variance", "shape": [16], "dtype": "float32"}, {"name": "batch_normalization_7/gamma", "shape": [16], "dtype": "float32"}, {"name": "batch_normalization_7/beta", "shape": [16], "dtype": "float32"}, {"name": "batch_normalization_7/moving_mean", "shape": [16], "dtype": "float32"}, {"name": "batch_normalization_7/moving_variance", "shape": [16], "dtype": "float32"}, {"name": "batch_normalization_8/gamma", "shape": [16], "dtype": "float32"}, {"name": "batch_normalization_8/beta", "shape": [16], "dtype": "float32"}, {"name": "batch_normalization_8/moving_mean", "shape": [16], "dtype": "float32"}, {"name": "batch_normalization_8/moving_variance", "shape": [16], "dtype": "float32"}, {"name": "batch_normalization_9/gamma", "shape": [16], "dtype": "float32"}, {"name": "batch_normalization_9/beta", "shape": [16], "dtype": "float32"}, {"name": "batch_normalization_9/moving_mean", "shape": [16], "dtype": "float32"}, {"name": "batch_normalization_9/moving_variance", "shape": [16], "dtype": "float32"}, {"name": "conv2d_1/kernel", "shape": [1, 1, 1, 16], "dtype": "float32"}, {"name": "conv2d_1/bias", "shape": [16], "dtype": "float32"}, {"name": "conv2d_10/kernel", "shape": [1, 1, 192, 64], "dtype": "float32"}, {"name": "conv2d_10/bias", "shape": [64], "dtype": "float32"}, {"name": "conv2d_11/kernel", "shape": [1, 1, 64, 384], "dtype": "float32"}, {"name": "conv2d_11/bias", "shape": [384], "dtype": "float32"}, {"name": "conv2d_12/kernel", "shape": [1, 1, 384, 64], "dtype": "float32"}, {"name": "conv2d_12/bias", "shape": [64], "dtype": "float32"}, {"name": "conv2d_13/kernel", "shape": [1, 1, 64, 384], "dtype": "float32"}, {"name": "conv2d_13/bias", "shape": [384], "dtype": "float32"}, {"name": "conv2d_14/kernel", "shape": [1, 1, 384, 64], "dtype": "float32"}, {"name": "conv2d_14/bias", "shape": [64], "dtype": "float32"}, {"name": "conv2d_15/kernel", "shape": [1, 1, 64, 384], "dtype": "float32"}, {"name": "conv2d_15/bias", "shape": [384], "dtype": "float32"}, {"name": "conv2d_16/kernel", "shape": [1, 1, 384, 96], "dtype": "float32"}, {"name": "conv2d_16/bias", "shape": [96], "dtype": "float32"}, {"name": "conv2d_17/kernel", "shape": [1, 1, 96, 576], "dtype": "float32"}, {"name": "conv2d_17/bias", "shape": [576], "dtype": "float32"}, {"name": "conv2d_18/kernel", "shape": [1, 1, 576, 96], "dtype": "float32"}, {"name": "conv2d_18/bias", "shape": [96], "dtype": "float32"}, {"name": "conv2d_19/kernel", "shape": [1, 1, 96, 576], "dtype": "float32"}, {"name": "conv2d_19/bias", "shape": [576], "dtype": "float32"}, {"name": "conv2d_2/kernel", "shape": [1, 1, 16, 16], "dtype": "float32"}, {"name": "conv2d_2/bias", "shape": [16], "dtype": "float32"}, {"name": "conv2d_20/kernel", "shape": [1, 1, 576, 96], "dtype": "float32"}, {"name": "conv2d_20/bias", "shape": [96], "dtype": "float32"}, {"name": "conv2d_21/kernel", "shape": [1, 1, 96, 576], "dtype": "float32"}, {"name": "conv2d_21/bias", "shape": [576], "dtype": "float32"}, {"name": "conv2d_22/kernel", "shape": [1, 1, 576, 96], "dtype": "float32"}, {"name": "conv2d_22/bias", "shape": [96], "dtype": "float32"}, {"name": "conv2d_23/kernel", "shape": [1, 1, 96, 576], "dtype": "float32"}, {"name": "conv2d_23/bias", "shape": [576], "dtype": "float32"}, {"name": "conv2d_24/kernel", "shape": [1, 1, 576, 160], "dtype": "float32"}, {"name": "conv2d_24/bias", "shape": [160], "dtype": "float32"}, {"name": "conv2d_25/kernel", "shape": [1, 1, 160, 960], "dtype": "float32"}, {"name": "conv2d_25/bias", "shape": [960], "dtype": "float32"}, {"name": "conv2d_26/kernel", "shape": [1, 1, 960, 160], "dtype": "float32"}, {"name": "conv2d_26/bias", "shape": [160], "dtype": "float32"}, {"name": "conv2d_27/kernel", "shape": [1, 1, 160, 960], "dtype": "float32"}, {"name": "conv2d_27/bias", "shape": [960], "dtype": "float32"}, {"name": "conv2d_28/kernel", "shape": [1, 1, 960, 160], "dtype": "float32"}, {"name": "conv2d_28/bias", "shape": [160], "dtype": "float32"}, {"name": "conv2d_29/kernel", "shape": [1, 1, 160, 960], "dtype": "float32"}, {"name": "conv2d_29/bias", "shape": [960], "dtype": "float32"}, {"name": "conv2d_3/kernel", "shape": [1, 1, 1, 16], "dtype": "float32"}, {"name": "conv2d_3/bias", "shape": [16], "dtype": "float32"}, {"name": "conv2d_30/kernel", "shape": [1, 1, 960, 320], "dtype": "float32"}, {"name": "conv2d_30/bias", "shape": [320], "dtype": "float32"}, {"name": "conv2d_31/kernel", "shape": [1, 1, 320, 1280], "dtype": "float32"}, {"name": "conv2d_31/bias", "shape": [1280], "dtype": "float32"}, {"name": "conv2d_32/kernel", "shape": [1, 1, 1280, 7], "dtype": "float32"}, {"name": "conv2d_32/bias", "shape": [7], "dtype": "float32"}, {"name": "conv2d_4/kernel", "shape": [1, 1, 16, 16], "dtype": "float32"}, {"name": "conv2d_4/bias", "shape": [16], "dtype": "float32"}, {"name": "conv2d_5/kernel", "shape": [1, 1, 1, 16], "dtype": "float32"}, {"name": "conv2d_5/bias", "shape": [16], "dtype": "float32"}, {"name": "conv2d_6/kernel", "shape": [1, 1, 16, 16], "dtype": "float32"}, {"name": "conv2d_6/bias", "shape": [16], "dtype": "float32"}, {"name": "conv2d_7/kernel", "shape": [1, 1, 48, 48], "dtype": "float32"}, {"name": "conv2d_7/bias", "shape": [48], "dtype": "float32"}, {"name": "conv2d_8/kernel", "shape": [1, 1, 48, 32], "dtype": "float32"}, {"name": "conv2d_8/bias", "shape": [32], "dtype": "float32"}, {"name": "conv2d_9/kernel", "shape": [1, 1, 32, 192], "dtype": "float32"}, {"name": "conv2d_9/bias", "shape": [192], "dtype": "float32"}, {"name": "depthwise_conv2d_1/depthwise_kernel", "shape": [5, 5, 16, 1], "dtype": "float32"}, {"name": "depthwise_conv2d_1/bias", "shape": [16], "dtype": "float32"}, {"name": "depthwise_conv2d_10/depthwise_kernel", "shape": [3, 3, 576, 1], "dtype": "float32"}, {"name": "depthwise_conv2d_10/bias", "shape": [576], "dtype": "float32"}, {"name": "depthwise_conv2d_11/depthwise_kernel", "shape": [3, 3, 576, 1], "dtype": "float32"}, {"name": "depthwise_conv2d_11/bias", "shape": [576], "dtype": "float32"}, {"name": "depthwise_conv2d_12/depthwise_kernel", "shape": [3, 3, 576, 1], "dtype": "float32"}, {"name": "depthwise_conv2d_12/bias", "shape": [576], "dtype": "float32"}, {"name": "depthwise_conv2d_13/depthwise_kernel", "shape": [3, 3, 960, 1], "dtype": "float32"}, {"name": "depthwise_conv2d_13/bias", "shape": [960], "dtype": "float32"}, {"name": "depthwise_conv2d_14/depthwise_kernel", "shape": [3, 3, 960, 1], "dtype": "float32"}, {"name": "depthwise_conv2d_14/bias", "shape": [960], "dtype": "float32"}, {"name": "depthwise_conv2d_15/depthwise_kernel", "shape": [3, 3, 960, 1], "dtype": "float32"}, {"name": "depthwise_conv2d_15/bias", "shape": [960], "dtype": "float32"}, {"name": "depthwise_conv2d_2/depthwise_kernel", "shape": [13, 13, 16, 1], "dtype": "float32"}, {"name": "depthwise_conv2d_2/bias", "shape": [16], "dtype": "float32"}, {"name": "depthwise_conv2d_3/depthwise_kernel", "shape": [21, 21, 16, 1], "dtype": "float32"}, {"name": "depthwise_conv2d_3/bias", "shape": [16], "dtype": "float32"}, {"name": "depthwise_conv2d_4/depthwise_kernel", "shape": [3, 3, 48, 1], "dtype": "float32"}, {"name": "depthwise_conv2d_4/bias", "shape": [48], "dtype": "float32"}, {"name": "depthwise_conv2d_5/depthwise_kernel", "shape": [3, 3, 192, 1], "dtype": "float32"}, {"name": "depthwise_conv2d_5/bias", "shape": [192], "dtype": "float32"}, {"name": "depthwise_conv2d_6/depthwise_kernel", "shape": [3, 3, 384, 1], "dtype": "float32"}, {"name": "depthwise_conv2d_6/bias", "shape": [384], "dtype": "float32"}, {"name": "depthwise_conv2d_7/depthwise_kernel", "shape": [3, 3, 384, 1], "dtype": "float32"}, {"name": "depthwise_conv2d_7/bias", "shape": [384], "dtype": "float32"}, {"name": "depthwise_conv2d_8/depthwise_kernel", "shape": [3, 3, 384, 1], "dtype": "float32"}, {"name": "depthwise_conv2d_8/bias", "shape": [384], "dtype": "float32"}, {"name": "depthwise_conv2d_9/depthwise_kernel", "shape": [3, 3, 576, 1], "dtype": "float32"}, {"name": "depthwise_conv2d_9/bias", "shape": [576], "dtype": "float32"}]}]}